output/model.pt (torch, 924251 bytes, 11 tensors)

lstm.weight_ih_l0 f4 [512, 45]
0	0x3d39b4c5	0.04533841
1	0x3df27fa3	0.11840751
2	0xbdae74be	-0.085183606
3	0x3d381603	0.044942867
4	0xbd291bd8	-0.04128632
5	0x3a5b1b5c	0.0008358264
6	0x3d953d37	0.072870664
7	0x3d3b982f	0.04579943
8	0x3dc7a7bf	0.09748792
9	0xbd1362a6	-0.03598275
10	0xbcaa66ac	-0.02080091
11	0xbc889d25	-0.016676495
12	0x3c013d04	0.007888082
13	0x3da24bc0	0.079246044
14	0x3dc9d7e0	0.09855628
15	0x3dbf3579	0.09336371
16	0x3d32a61a	0.043615438
17	0xbd5550d9	-0.052079055
18	0xbc188ad7	-0.009310446
19	0x3d4959e2	0.049157985
20	0xbb9ebf8e	-0.0048446124
21	0x3dc21450	0.094765306
22	0x3dd51a4d	0.10405407
23	0x3d37443b	0.044742804
24	0xbda1e0fb	-0.0790424
25	0xbd93d118	-0.07217616
26	0xbd2d134f	-0.042254742
27	0xbdc48f0c	-0.095975965
28	0xbd8a2c87	-0.06746774
29	0x3ce8c600	0.028414726
30	0xbdd9e247	-0.10638862
31	0xbce912ae	-0.02845129
32	0xbd9a0558	-0.075205505
33	0xbd2e1ece	-0.042509846
34	0x3d9c71ea	0.07638915
35	0xbd6b83d9	-0.057498787
36	0x3d90122e	0.070347175
37	0x3c86083e	0.016361352
38	0xbdb38302	-0.08765222
39	0x3d2304ec	0.039799616
40	0xbcd36f6a	-0.025809962
41	0x3cb90092	0.02258328
42	0xbbcdf48b	-0.0062852553
43	0x3ded910b	0.115999304
44	0xbd4216c7	-0.047385003
45	0x3da2f0e0	0.079560995
46	0xbd63c057	-0.05560335
47	0xbcfca147	-0.030838622
48	0xbbe61048	-0.007020984
49	0xbb8e5766	-0.004343915
50	0x3ca82fc7	0.020530595
51	0x3db6ac28	0.08919555
52	0x3c0a2254	0.008431036
53	0xbca1ec5f	-0.01976603
54	0xbd57bd13	-0.05267055
55	0x3dd7c2fc	0.10535237
56	0xbcc16bfb	-0.02361106
57	0xbd8f189e	-0.06987117
58	0x3d821fcd	0.06353722
59	0xbd1da2f9	-0.0384855
60	0xbc14c4e5	-0.009080146
61	0x3daf8f14	0.08572212
62	0xbbe3d46a	-0.006952812
63	0x3dd5a4ae	0.10431801
64	0x3c1eb9dc	0.009687867
65	0x3cc64725	0.024203846
66	0xbcdf7b2c	-0.027280413
67	0xbddfd057	-0.109284095
68	0xbd45619b	-0.048188787
69	0x3a001f44	0.00048874714
70	0x3cd2b298	0.025719926
71	0x3bc15946	0.005900535
72	0xbca5c606	-0.020236026
73	0x3d9c3e3d	0.076290585
74	0xbc4c2ce8	-0.012461878
75	0x3da34e6a	0.07973941
76	0x3c5ce58d	0.013482464
77	0xbc27bea4	-0.010238323
78	0x3cc2cf1a	0.023780394
79	0xbd98e10b	-0.074647985
80	0x3c51f268	0.012814142
81	0x3da81e12	0.082088605
82	0x3dcc56ca	0.09977491
83	0xbccf8b67	-0.025335027
84	0xbc6664ed	-0.0140621485
85	0xbcbd8955	-0.023136774
86	0x3d814830	0.06312597
87	0x3cf145c2	0.029452208
88	0x3dcd8098	0.10034293
89	0xbd05eb4f	-0.03269511
90	0xbdda6b2f	-0.10664975
91	0xbdf340e6	-0.11877613
92	0xbc8c07bb	-0.01709353
93	0x3d8794e4	0.066201955
94	0x3c854d96	0.016272347
95	0x3c72ee83	0.014827373
96	0x3c73d6b7	0.014882735
97	0x3b9995b2	0.0046870345
98	0x3d689c7e	0.056789868
99	0xbca5ff5e	-0.02026337
100	0xbd94ede2	-0.07271935
101	0x3ad5f946	0.00163249
102	0x3c8f1092	0.017463956
103	0x3d0ad457	0.03389391
104	0xbda5f647	-0.08103614
105	0xbca22156	-0.019791286
106	0xbd06672e	-0.032813244
107	0x3ce6b27a	0.028161276
108	0x3bffbfcf	0.007804848
109	0xbdc22bc4	-0.09481004
110	0xbdcb4127	-0.09924536
111	0xbdb7d120	-0.08975434
112	0x3d08c521	0.03339112
113	0xbdab5fb8	-0.08367866
114	0xbc57ab70	-0.0131634325
115	0xbc8c764f	-0.017146258
116	0xbdab0adb	-0.0835168
117	0xbc8dcf87	-0.01731087
118	0xbdc47aac	-0.0959371
119	0x3c4ecd90	0.012622252
120	0x3b683bf6	0.003543613
121	0x3bec8bdf	0.0072188224
122	0xbdb96a48	-0.09053475
123	0x3b8dec60	0.0043311566
124	0xbdb4611c	-0.08807585
125	0x3dcd2d64	0.10018423
126	0x3d89e928	0.06733924
127	0x3cacac0c	0.021078132
128	0xbba2cf91	-0.0049685915
129	0xbda92e8d	-0.08260832
130	0xbc88c824	-0.016696997
131	0x3d7736d4	0.060355023
132	0xbdc620c5	-0.09674219
133	0xbd8d5368	-0.06900674
134	0x3b82a912	0.00398744
135	0x3d4e3a8e	0.05034881
136	0x3da24868	0.07923967
137	0xbdc98272	-0.098393336
138	0x3d69babe	0.057062857
139	0xbd19d123	-0.037552964
140	0xbd9ee3f5	-0.07758323
141	0x3d9b73b1	0.07590426
142	0x3bfa90d1	0.007646658
143	0xbd044d61	-0.032300357
144	0xbde2bf38	-0.11071628
145	0x3d7fed79	0.06248233
146	0x3d4e4799	0.05036125
147	0xbd911772	-0.0708455
148	0xbdba3e12	-0.0909387
149	0x3d9e5e9e	0.077328905
150	0xbba80b72	-0.0051283175
151	0xbdc1d1c9	-0.094638415
152	0xbd9859d8	-0.07439011
153	0x3dbb8c26	0.091575906
154	0x3d5030aa	0.05082766
155	0x3d980e6e	0.07424627
156	0xbcdce95f	-0.026966749
157	0x3be72148	0.007053528
158	0x3da7061c	0.08155462
159	0xbc8573f7	-0.016290648
160	0xbd16ed56	-0.036847435
161	0xbb735dee	-0.0037134844
162	0xbc2d4f08	-0.010577925
163	0xbdbcb6f6	-0.092145845
164	0x3d71cc74	0.059032872
165	0xbddc9b2d	-0.10771785
166	0xbc98b2bc	-0.018639915
167	0x3da98611	0.08277524
168	0x3da27ac8	0.07933575
169	0xbd61c974	-0.05512376
170	0x3d01dcd2	0.03170473
171	0x3d8b09f3	0.06789007
172	0x3d99ffdc	0.075195044
173	0x3d416de7	0.04722395
174	0xbd02621e	-0.031831853
175	0xbd0d4662	-0.03449095
176	0xbc4816be	-0.012212453
177	0xbdb2f8d9	-0.0873887
178	0x3d300d84	0.04298164
179	0xbd6d20b2	-0.05789251
180	0x3a40f3b9	0.0007360536
181	0xbda84fdd	-0.08218358
182	0xbc085ce1	-0.008322925
183	0xbde1a2ee	-0.110174045
184	0x3dd7b73d	0.10532997
185	0xbd450b2c	-0.048106357
186	0xbdb7674f	-0.089552514
187	0x3d9c98d8	0.0764634
188	0xbd45cbcb	-0.048290055
189	0x3d00aa6d	0.03141253
190	0xbd3bc61b	-0.045843225
191	0xbda2b54e	-0.079447374
192	0xbcf8975c	-0.030345611
193	0x3d9d2e1a	0.07674809
194	0x3c2d82bd	0.0105902525
195	0xbdda3756	-0.10655086
196	0xbcfbaad6	-0.03072111
197	0x3d8da8f0	0.06916988
198	0xbb326678	-0.002722172
199	0x3daeb7a0	0.085311174
200	0xbd07b6f5	-0.033133466
201	0x3b8fb120	0.0043851286
202	0x3d532314	0.051547125
203	0x3db308f8	0.08741945
204	0xbda2ea5c	-0.07954857
205	0x3ccfe127	0.025375916
206	0xbcb58cba	-0.02216183
207	0xbdbe0df5	-0.09280006
208	0x3c5cef32	0.013484763
209	0xbb35bd42	-0.0027731215
210	0xbdd5367a	-0.10410781
211	0x3dafe611	0.085888036
212	0xbdbcd8d8	-0.09221047
213	0xbdd454e7	-0.10367756
214	0x3d513b71	0.05108208
215	0xbcd0e779	-0.025501
216	0xbd8f6395	-0.07001416
217	0xbc1f3f99	-0.009719753
218	0xbdcef965	-0.10106162
219	0xbda2e957	-0.07954662
220	0x3d8b6949	0.06807191
221	0x3d2116f3	0.039328527
222	0x3d89098f	0.06691276
223	0x3d4b0118	0.04956159
224	0xbcc28471	-0.023744794
225	0x3cc35027	0.02384193
226	0x3d9eb7e0	0.07749915
227	0xbc8a258b	-0.016863605
228	0x3d43ff86	0.047851108
229	0xbc3be8d0	-0.011469081
230	0x3cdb6681	0.026782276
231	0x3d392c4a	0.045208253
232	0x3c6e3e44	0.0145412125
233	0x3d10293f	0.035195585
234	0x3daf3a32	0.08556022
235	0xbb994a0a	-0.0046780156
236	0xbd6224a4	-0.055210724
237	0xbdb5bbc1	-0.08873702
238	0x3d9ae2d6	0.07562797
239	0x3c1016c0	0.0087944865
240	0xbd490489	-0.04907659
241	0x3cedbede	0.029021677
242	0x3cae6fc7	0.021293534
243	0x3cee35a8	0.02907832
244	0x3dab59ec	0.083667606
245	0x3ceef61e	0.029170092
246	0x3d599a0d	0.05312543
247	0xbd489ea0	-0.0489794
248	0xbd81c580	-0.06336498
249	0xbd20b4b6	-0.03923484
250	0x3ddd2a3c	0.10799071
251	0x3d9d3666	0.07676391
252	0xbdb28bc7	-0.08718067
253	0x3d9ef1e8	0.07760984
254	0x3d012eaf	0.03153866
255	0xbdd4471d	-0.10365126

lstm.weight_hh_l0 f4 [512, 128]
0	0xbb794201	-0.0038033726
1	0xbdcc87f3	-0.09986868
2	0x3c13a3a3	0.009011182
3	0xbc535749	-0.012899228
4	0xbcf38f24	-0.02973134
5	0xbd2d5871	-0.042320672
6	0x3d2019bd	0.039087046
7	0x3c9e5ebf	0.019332288
8	0x3c85d480	0.01633668
9	0xbd39772b	-0.045279663
10	0x3d94238a	0.07233341
11	0xba089702	-0.000521049
12	0xbccbc4a1	-0.024874033
13	0xbbb1317b	-0.00540751
14	0xbb7bffdc	-0.0038452065
15	0x3cd3db03	0.025861269
16	0xbd2f0d08	-0.042737037
17	0xbd014004	-0.03155519
18	0xbcd38bb7	-0.025823457
19	0xbd887af0	-0.066640735
20	0x3db55fdf	0.088561766
21	0x3c9ed65b	0.019389322
22	0xbd33078c	-0.04370837
23	0x3d146f3f	0.036238905
24	0x3d60d57d	0.0548911
25	0x38963030	7.161533e-05
26	0x3da22df5	0.07918922
27	0x3dace321	0.08441759
28	0xbd64a4c3	-0.05582119
29	0xbd540452	-0.051761933
30	0x3d69f82e	0.05712145
31	0x3d7a94b3	0.061176967
32	0xbccca5c7	-0.024981393
33	0x3d14db22	0.036341794
34	0xbd8fa929	-0.070146866
35	0xbca47747	-0.020076407
36	0x3d597a72	0.05309529
37	0xbd641a77	-0.0556893
38	0x3cb59834	0.022167303
39	0x3bfc182c	0.007693311
40	0xbc53f873	-0.012937653
41	0x3c996e84	0.018729456
42	0x3d6edfed	0.05831902
43	0x3b3a6799	0.0028443097
44	0xbcdfa752	-0.027301464
45	0xbb6a87bf	-0.0035786477
46	0xbd222378	-0.039584607
47	0x3d2453d5	0.04011901
48	0x3cf8f863	0.030391878
49	0xbc2fcc53	-0.010729867
50	0x3c53029c	0.01287904
51	0xbd6de97a	-0.05808399
52	0x3baadcfe	0.0052143326
53	0xbc6fba09	-0.014631757
54	0x3cc7343a	0.024316896
55	0x3d3823c5	0.044955987
56	0x3b22d4f6	0.0024846173
57	0x3d5a370b	0.05327515
58	0x3d0558ae	0.032555275
59	0x3c6137c8	0.013746209
60	0x3dc6ad1b	0.09700986
61	0xbc9e85e8	-0.01935096
62	0xbcdc493d	-0.026890391
63	0x39fda36e	0.00048377685
64	0xbc1cf998	-0.009580992
65	0xbcdbe36c	-0.026841842
66	0x3da7ea61	0.08199001
67	0x3d11c658	0.035589546
68	0x3cf0171b	0.029307893
69	0xbcbcc099	-0.023041056
70	0x3d8754ce	0.06607972
71	0x3cd71e64	0.026259609
72	0x3cfa7d9a	0.03057747
73	0xb9fe8531	-0.0004854589
74	0x3c2f440d	0.010697377
75	0x3ccd124c	0.025033139
76	0x3d27baaa	0.0409495
77	0x3dbe6ba8	0.092978776
78	0xbd973be8	-0.07384473
79	0xbdc1119c	-0.09427187
80	0x3c8cca60	0.017186344
81	0x3c31e207	0.010857112
82	0xbcaa0828	-0.020755842
83	0x3d2c7cc4	0.042111173
84	0xbd692e56	-0.056928955
85	0xbc08228d	-0.008309019
86	0xbd7b826f	-0.061403688
87	0x3d5d0e30	0.05396861
88	0xbcfef0cc	-0.03112068
89	0x3d09c6ee	0.03363698
90	0xbd27e6ac	-0.04099147
91	0xbcbf8652	-0.023379479
92	0x3c84491f	0.016148148
93	0x3ca31afd	0.01991033
94	0xbca2a81f	-0.019855557
95	0x3d58b6c1	0.052908663
96	0x3c238333	0.009980011
97	0xbc8ca3c6	-0.017167937
98	0xbb817ec8	-0.003951881
99	0xbd2d3ce3	-0.042294394
100	0x3cf73fcd	0.03018179
101	0xbcf7591f	-0.030193863
102	0xbd9c66e4	-0.07636812
103	0x3c82ff9b	0.015991023
104	0xbd5ad6f0	-0.053427637
105	0xbb233234	-0.002490175
106	0xbd803a03	-0.06261065
107	0x3d607b67	0.054805186
108	0xbbeda4f8	-0.007252332
109	0x3cd25ca0	0.025678933
110	0x3d3e2559	0.046422336
111	0xbd4fc720	-0.05072701
112	0x3ce62291	0.028092654
113	0x3baa91b1	0.005205356
114	0x399027c0	0.00027495436
115	0x3a7659ad	0.0009397518
116	0x3dd6f53c	0.104959935
117	0xbd6a3095	-0.057175238
118	0x3aa0b315	0.0012260402
119	0x3b0bcde8	0.0021332446
120	0x3d2928dd	0.041298736
121	0xbb6c9cd4	-0.003610422
122	0xbd2b36d5	-0.04180034
123	0xbccb2e3d	-0.024802322
124	0xbcd82e5e	-0.026389297
125	0xbdb4ed95	-0.08834378
126	0xbd5de66d	-0.05417483
127	0xbd230317	-0.03979787
128	0x3d016efe	0.03159999
129	0xbd6a449c	-0.057194337
130	0x3db62e98	0.08895606
131	0x3ad9ba96	0.0016611393
132	0xbdb620a7	-0.08892947
133	0x3b8d9173	0.0043203174
134	0x3d140e51	0.036146466
135	0xbcf66d67	-0.030081464
136	0x3c8893e1	0.016672077
137	0xbc103775	-0.0088022845
138	0x3c10c3d2	0.00883575
139	0x3c095878	0.008382909
140	0xbc441040	-0.011966765
141	0xbc9c72bd	-0.01909768
142	0xbcf35b72	-0.02970669
143	0x3b9266d4	0.0044678245
144	0xbc968f3e	-0.01837885
145	0x38c9dad9	9.6251904e-05
146	0xbc19bf3f	-0.0093839755
147	0x3d728857	0.059212055
148	0x3d2f679e	0.042823426
149	0xbd353735	-0.044242103
150	0x3c40ec02	0.011775019
151	0xbc5393af	-0.0129136285
152	0x3bc732f1	0.0060790707
153	0xbd604c44	-0.054760233
154	0x3d53593c	0.051598772
155	0x3da76fbc	0.081756085
156	0x3c65bbcf	0.014021828
157	0xbca099d6	-0.019604605
158	0x3c0e8fe5	0.008701299
159	0x3cf6833e	0.030091878
160	0xbc4bfaa2	-0.012449892
161	0xbc9864ec	-0.01860281
162	0x3dbe490f	0.092912786
163	0xbd145fbb	-0.03622411
164	0xbd1793a0	-0.03700602
165	0x3dca933e	0.098913655
166	0xbdb3ced5	-0.087796845
167	0xbcea4e42	-0.02860177
168	0x3d534c48	0.05158642
169	0xbb2cc790	-0.0026364066
170	0x3bffc15d	0.007805033
171	0x3d601ff4	0.054717973
172	0xbb40795f	-0.0029369218
173	0x3c7623e9	0.01502321
174	0x3e0943dd	0.13404794
175	0x3d42190a	0.04738716
176	0xbdb4f7cf	-0.08836328
177	0xbd90390d	-0.070421316
178	0xbc921c56	-0.017835777
179	0x3d7b36d2	0.061331578
180	0x3cd9d854	0.026592411
181	0xbcbd231a	-0.023088027
182	0xbcc13036	-0.02358256
183	0x3cc1f3d3	0.023675835
184	0xbdaf58b2	-0.08561839
185	0x3d263706	0.04057982
186	0x3b518cba	0.0031974749
187	0xbc3d8fff	-0.011569976
188	0x3d73ddcc	0.059537694
189	0xbbca3fcd	-0.0061721564
190	0xbce69117	-0.028145356
191	0x3d1d1c0d	0.03835683
192	0x3be9b0c4	0.007131668
193	0x3c95270b	0.018207094
194	0x3a475158	0.0007603369
195	0xbd036957	-0.03208288
196	0xbcb9a52e	-0.022661772
197	0xbd535860	-0.051597953
198	0xbd99b60c	-0.07505426
199	0x3cba62a2	0.02275211
200	0x3dadfa2c	0.08494982
201	0xbd641dc8	-0.055692464
202	0x3c16bca2	0.009200247
203	0x3cc227a3	0.02370054
204	0xbd330b14	-0.043711737
205	0xbc12e48e	-0.0089656245
206	0x3c866d9e	0.016409691
207	0x3d423585	0.04741432
208	0xbca17dde	-0.019713338
209	0x3d416166	0.047212027
210	0xbd8439e7	-0.064563565
211	0x3dc0860e	0.09400569
212	0xbb9caef4	-0.004781598
213	0x3d4f506e	0.050613813
214	0x3af2957a	0.0018507682
215	0x3cc3c0fc	0.023895733
216	0xbc537aa6	-0.01290766
217	0x3ceefd20	0.029173434
218	0x3d21eb52	0.03953106
219	0x3c0c0404	0.008545879
220	0xbc63aa8f	-0.013895645
221	0x3d442aac	0.047892258
222	0xbd1a8df5	-0.037733037
223	0xbd8a55a1	-0.06754614
224	0x3d6f27da	0.058387615
225	0x3d5c0ced	0.053723264
226	0x3c9c7e73	0.019103264
227	0x3d427a8e	0.04748016
228	0xbcc1bfa2	-0.023650948
229	0xbd73c7a3	-0.05951656
230	0x3d3d5890	0.046227038
231	0xbc4132a1	-0.011791856
232	0xbcef29cd	-0.029194737
233	0x3cd8edc4	0.026480563
234	0x3c82b14a	0.015953679
235	0x3d57ca3b	0.052683096
236	0x3d26d1cf	0.040727433
237	0x3d580e2f	0.0527479
238	0x3bb940cc	0.0056534763
239	0xbd8df9a3	-0.0693238
240	0x3d9f19e0	0.07768607
241	0x3d97af69	0.07406504
242	0x3b710915	0.0036779095
243	0xba2005ac	-0.0006104361
244	0x3da61ddc	0.08111164
245	0xbd13da5b	-0.036096912
246	0xbda551a7	-0.080722146
247	0x3cfe0a5d	0.031010801
248	0x3cad62af	0.02116522
249	0x3b3aab89	0.002848359
250	0xbd3b98c4	-0.045799986
251	0x3d3e4f30	0.046462238
252	0x3d4a99eb	0.049463194
253	0xbc3b2c38	-0.011424117
254	0x3d199f44	0.037505403
255	0xbc7ec73e	-0.015550433

lstm.bias_ih_l0 f4 [512]
0	0xbc1d49ba	-0.009600097
1	0x3c1df4be	0.009640871
2	0x3cd0c937	0.025486572
3	0x3a574b4e	0.00082128204
4	0xbb9e672b	-0.004834076
5	0x3b1e75ba	0.0024179057
6	0x3bc0a6eb	0.005879273
7	0xbb91ac31	-0.0044455756
8	0x3b08ba6b	0.0020863067
9	0x3b93308a	0.0044918703
10	0x3c09c39f	0.008408456
11	0x3c82381b	0.015895894
12	0x3c4ba2ae	0.012428923
13	0x3c8ee49f	0.017443
14	0x3bbf9c73	0.0058475076
15	0xbb82e486	-0.0039945273
16	0x3b5c489f	0.0033612621
17	0xbc1bb466	-0.00950346
18	0x3c812846	0.015766274
19	0xbc93ba49	-0.018033164
20	0x3a860b85	0.0010226822
21	0x3c426894	0.011865754
22	0xba3e7f47	-0.00072668906
23	0x3b11ad0e	0.0022228393
24	0x3c309ca9	0.010779538
25	0xbbb7ea91	-0.0056126793
26	0x3bbdb37b	0.005789218
27	0x3c9c6ba2	0.019094292
28	0x3bff2938	0.007786896
29	0x3bb6d124	0.0055791307
30	0xbbbcb058	-0.0057583265
31	0x3c29e547	0.010369605
32	0xbc5bca51	-0.013414935
33	0xbbb9db0f	-0.005671866
34	0xbb8d8404	-0.004318716
35	0x3c2ebbcc	0.010664891
36	0x3c668fa8	0.014072336
37	0x3c041605	0.0080618905
38	0xbb3acbd4	-0.0028502839
39	0xb96ccea1	-0.00022583689
40	0xbc4dcd18	-0.012561105
41	0x3c2fa9e8	0.010721661
42	0x3c8f5352	0.017495785
43	0x3c1412a8	0.009037651
44	0xba8e0754	-0.0010835924
45	0x3bca9835	0.0061826953
46	0xbabf0648	-0.0014574016
47	0xbbc97ef5	-0.0061491677
48	0xbc017a73	-0.007902729
49	0x3bf5629d	0.0074885623
50	0x3c51dde6	0.012809252
51	0x3b812c40	0.0039420426
52	0x3aeb5ec4	0.001795732
53	0xbc42857a	-0.011872644
54	0x3a8cd99d	0.0010746006
55	0xbb5cd39d	-0.0033695467
56	0xbb503014	-0.0031766938
57	0x3bf9f926	0.0076285778
58	0xbb7377ba	-0.003715022
59	0x3b8585f3	0.004074806
60	0xbc1f0578	-0.009705894
61	0xba8ef784	-0.0010907506
62	0xb69c7300	-4.66255e-06
63	0xbb31a2ad	-0.002710502
64	0x3bb22b3f	0.0054372842
65	0x3b862431	0.00409367
66	0x3c97cd67	0.01853056
67	0x3c9b2f96	0.01894359
68	0x3b3338f7	0.0027347186
69	0x3af33827	0.0018556163
70	0x3c053c31	0.0081320265
71	0x3b9f7a36	0.0048668636
72	0xb9fae49c	-0.00047854043
73	0xbc847009	-0.016166704
74	0x3c1fb63a	0.009748036
75	0x3c4ff980	0.012693763
76	0xbbb3f64b	-0.005492007
77	0x3baff972	0.0053703124
78	0xbbcbb890	-0.00621707
79	0x3c84c437	0.016206844
80	0x3c14c6fe	0.009080647
81	0x3bc6d099	0.0060673472
82	0x39de44c7	0.00042394383
83	0x3c063213	0.00819065
84	0x3a7d533e	0.0009663588
85	0x3c620e8b	0.013797413
86	0x3c99d38b	0.01877763
87	0x3c4ef954	0.012632687
88	0x3c7eae6b	0.015544514
89	0x3c704251	0.014664249
90	0xbac36f76	-0.0014910537
91	0x38bb145a	8.9206456e-05
92	0x3bc409a5	0.005982595
93	0xbb761e48	-0.003755467
94	0x3c286122	0.0102770645
95	0x3a6c73b3	0.0009019926
96	0xbc58e8ab	-0.013239066
97	0x3a9ab604	0.0011803512
98	0x3aa3f867	0.0012509943
99	0xbbd14065	-0.0063858503
100	0x3c3062cb	0.010765742
101	0x3c6b9fb6	0.01438134
102	0x3bbd4a3f	0.005776673
103	0x3c21aa46	0.0098672565
104	0xbb651df6	-0.0034960485
105	0xbbdd67fe	-0.0067567816
106	0xbc24b6e7	-0.010053373
107	0x3bc00db8	0.0058610104
108	0x3c99bd2e	0.018766966
109	0x3aa98934	0.0012934566
110	0xbb82b9fc	-0.003989456
111	0x3c8dea99	0.017323779
112	0x3bad6838	0.005291965
113	0xba65f7f8	-0.0008772607
114	0x3bdc60b6	0.006725396
115	0xbc99f8d3	-0.018795406
116	0x3bbff1d3	0.005857685
117	0x3c849bc0	0.016187549
118	0x3c268932	0.010164546
119	0xbc142c16	-0.009043714
120	0x3c2f5bd9	0.0107030505
121	0xba63e6cc	-0.0008693754
122	0x3bf3d74c	0.007441437
123	0x3b81473c	0.0039452594
124	0xbb905a34	-0.0044052843
125	0xba6b2a4d	-0.0008970842
126	0x3c704909	0.01466585
127	0xbc10cea4	-0.008838329
128	0x3f7d6fc6	0.9899868
129	0x3f81269f	1.0089911
130	0x3f7fe0ba	0.9995228
131	0x3f801888	1.0007486
132	0x3f7fa286	0.99857366
133	0x3f810cd2	1.0082037
134	0x3f80cb5a	1.0062058
135	0x3f7fc6ad	0.9991253
136	0x3f800702	1.0002139
137	0x3f81a67e	1.0128934
138	0x3f80e56f	1.0070018
139	0x3f806bc4	1.0032887
140	0x3f81062e	1.0080011
141	0x3f820812	1.0158713
142	0x3f7fd847	0.9993939
143	0x3f7e4e9a	0.99338686
144	0x3f7d946d	0.99054605
145	0x3f7c355c	0.9851892
146	0x3f8179d6	1.0115306
147	0x3f7ae68f	0.98008054
148	0x3f801bed	1.0008522
149	0x3f80beef	1.0058268
150	0x3f7dcc82	0.9914018
151	0x3f808381	1.0040132
152	0x3f810ae1	1.0081445
153	0x3f809318	1.004489
154	0x3f806f4b	1.0033964
155	0x3f82170c	1.0163283
156	0x3f802905	1.0012518
157	0x3f81d785	1.0143896
158	0x3f7d5ce5	0.9896987
159	0x3f7f1d4f	0.99654096
160	0x3f7d4454	0.98932385
161	0x3f7ec623	0.9952108
162	0x3f7f5aaa	0.9974772
163	0x3f810161	1.0078546
164	0x3f824151	1.0176183
165	0x3f806f68	1.0033998
166	0x3f8004cd	1.0001465
167	0x3f7fb662	0.9988767
168	0x3f7e79cd	0.99404603
169	0x3f814d33	1.0101684
170	0x3f80b753	1.0055946
171	0x3f7dfcbe	0.9921378
172	0x3f801573	1.0006546
173	0x3f7d0784	0.9883959
174	0x3f80f480	1.0074615
175	0x3f7f3ea6	0.9970497
176	0x3f7f641d	0.99762136
177	0x3f812a1d	1.0090977
178	0x3f7e9457	0.994451
179	0x3f7c7d78	0.9862895
180	0x3f7f2093	0.9965908
181	0x3f7d758e	0.990075
182	0x3f7e0ed5	0.9924138
183	0x3f7eb5a7	0.9949593
184	0x3f801170	1.0005322
185	0x3f802708	1.0011911
186	0x3f7ee9f5	0.9957574
187	0x3f7c10a5	0.984629
188	0x3f79c331	0.97563463
189	0x3f7dee02	0.99191296
190	0x3f804af7	1.0022877
191	0x3f7d9126	0.99049604
192	0x3f8090f7	1.004424
193	0x3f811d22	1.0087016
194	0x3f7f498d	0.99721605
195	0x3f80a4cd	1.0050293
196	0x3f80888b	1.004167
197	0x3f7f4664	0.9971678
198	0x3f813444	1.0094075
199	0x3f8029d5	1.0012766
200	0x3f8095e5	1.0045744
201	0x3f7ca79d	0.9869326
202	0x3f815cf2	1.010649
203	0x3f7f5590	0.99739933
204	0x3f7de8ad	0.9918316
205	0x3f7f702c	0.99780536
206	0x3f7dde46	0.9916729
207	0x3f807a68	1.0037355
208	0x3f7e59ab	0.9935557
209	0x3f8050f9	1.0024711
210	0x3f80f0b3	1.0073456
211	0x3f806842	1.0031817
212	0x3f7e6503	0.9937288
213	0x3f7cca69	0.98746353
214	0x3f7d9fe9	0.9907213
215	0x3f7c65ab	0.98592633
216	0x3f7e1603	0.9925234
217	0x3f81824b	1.0117887
218	0x3f7e8622	0.9942342
219	0x3f7fe4dc	0.99958587
220	0x3f81a14d	1.012735
221	0x3f7e96d4	0.99448895
222	0x3f80a8f3	1.0051559
223	0x3f7f9bd8	0.99847174
224	0x3f7ad712	0.9798442
225	0x3f7da818	0.99084616
226	0x3f7faec9	0.99876076
227	0x3f7d17fc	0.9886472
228	0x3f80e9d4	1.0071359
229	0x3f7b3ca6	0.9813942
230	0x3f810ab0	1.0081387
231	0x3f816a25	1.0110518
232	0x3f80565e	1.0026357
233	0x3f7c0423	0.9844381
234	0x3f804eef	1.0024089
235	0x3f7e3cc9	0.993115
236	0x3f8129d2	1.0090888
237	0x3f8135d5	1.0094553
238	0x3f7cf33f	0.98808664
239	0x3f7f7f67	0.99803776
240	0x3f7ed58c	0.99544597
241	0x3f7f7f80	0.99803925
242	0x3f80cfa8	1.0063372
243	0x3f7e9792	0.9945003
244	0x3f7e9ff2	0.9946281
245	0x3f80b50e	1.0055254
246	0x3f80507e	1.0024564
247	0x3f81caae	1.0139978
248	0x3f80c83b	1.0061105
249	0x3f7f5a4a	0.99747145
250	0x3f80c8a9	1.0061237
251	0x3f7f721c	0.9978349
252	0x3f7db77b	0.99108094
253	0x3f7d39e8	0.9891648
254	0x3f804021	1.001957
255	0x3f7e8f09	0.99437004

lstm.bias_hh_l0 f4 [512]
0	0xbc1d49ba	-0.009600097
1	0x3c1df4be	0.009640871
2	0x3cd0c937	0.025486572
3	0x3a574b4e	0.00082128204
4	0xbb9e672b	-0.004834076
5	0x3b1e75ba	0.0024179057
6	0x3bc0a6eb	0.005879273
7	0xbb91ac31	-0.0044455756
8	0x3b08ba6b	0.0020863067
9	0x3b93308a	0.0044918703
10	0x3c09c39f	0.008408456
11	0x3c82381b	0.015895894
12	0x3c4ba2ae	0.012428923
13	0x3c8ee49f	0.017443
14	0x3bbf9c73	0.0058475076
15	0xbb82e486	-0.0039945273
16	0x3b5c489f	0.0033612621
17	0xbc1bb466	-0.00950346
18	0x3c812846	0.015766274
19	0xbc93ba49	-0.018033164
20	0x3a860b85	0.0010226822
21	0x3c426894	0.011865754
22	0xba3e7f47	-0.00072668906
23	0x3b11ad0e	0.0022228393
24	0x3c309ca9	0.010779538
25	0xbbb7ea91	-0.0056126793
26	0x3bbdb37b	0.005789218
27	0x3c9c6ba2	0.019094292
28	0x3bff2938	0.007786896
29	0x3bb6d124	0.0055791307
30	0xbbbcb058	-0.0057583265
31	0x3c29e547	0.010369605
32	0xbc5bca51	-0.013414935
33	0xbbb9db0f	-0.005671866
34	0xbb8d8404	-0.004318716
35	0x3c2ebbcc	0.010664891
36	0x3c668fa8	0.014072336
37	0x3c041605	0.0080618905
38	0xbb3acbd4	-0.0028502839
39	0xb96ccea1	-0.00022583689
40	0xbc4dcd18	-0.012561105
41	0x3c2fa9e8	0.010721661
42	0x3c8f5352	0.017495785
43	0x3c1412a8	0.009037651
44	0xba8e0754	-0.0010835924
45	0x3bca9835	0.0061826953
46	0xbabf0648	-0.0014574016
47	0xbbc97ef5	-0.0061491677
48	0xbc017a73	-0.007902729
49	0x3bf5629d	0.0074885623
50	0x3c51dde6	0.012809252
51	0x3b812c40	0.0039420426
52	0x3aeb5ec4	0.001795732
53	0xbc42857a	-0.011872644
54	0x3a8cd99d	0.0010746006
55	0xbb5cd39d	-0.0033695467
56	0xbb503014	-0.0031766938
57	0x3bf9f926	0.0076285778
58	0xbb7377ba	-0.003715022
59	0x3b8585f3	0.004074806
60	0xbc1f0578	-0.009705894
61	0xba8ef784	-0.0010907506
62	0xb69c7300	-4.66255e-06
63	0xbb31a2ad	-0.002710502
64	0x3bb22b3f	0.0054372842
65	0x3b862431	0.00409367
66	0x3c97cd67	0.01853056
67	0x3c9b2f96	0.01894359
68	0x3b3338f7	0.0027347186
69	0x3af33827	0.0018556163
70	0x3c053c31	0.0081320265
71	0x3b9f7a36	0.0048668636
72	0xb9fae49c	-0.00047854043
73	0xbc847009	-0.016166704
74	0x3c1fb63a	0.009748036
75	0x3c4ff980	0.012693763
76	0xbbb3f64b	-0.005492007
77	0x3baff972	0.0053703124
78	0xbbcbb890	-0.00621707
79	0x3c84c437	0.016206844
80	0x3c14c6fe	0.009080647
81	0x3bc6d099	0.0060673472
82	0x39de44c7	0.00042394383
83	0x3c063213	0.00819065
84	0x3a7d533e	0.0009663588
85	0x3c620e8b	0.013797413
86	0x3c99d38b	0.01877763
87	0x3c4ef954	0.012632687
88	0x3c7eae6b	0.015544514
89	0x3c704251	0.014664249
90	0xbac36f76	-0.0014910537
91	0x38bb145a	8.9206456e-05
92	0x3bc409a5	0.005982595
93	0xbb761e48	-0.003755467
94	0x3c286122	0.0102770645
95	0x3a6c73b3	0.0009019926
96	0xbc58e8ab	-0.013239066
97	0x3a9ab604	0.0011803512
98	0x3aa3f867	0.0012509943
99	0xbbd14065	-0.0063858503
100	0x3c3062cb	0.010765742
101	0x3c6b9fb6	0.01438134
102	0x3bbd4a3f	0.005776673
103	0x3c21aa46	0.0098672565
104	0xbb651df6	-0.0034960485
105	0xbbdd67fe	-0.0067567816
106	0xbc24b6e7	-0.010053373
107	0x3bc00db8	0.0058610104
108	0x3c99bd2e	0.018766966
109	0x3aa98934	0.0012934566
110	0xbb82b9fc	-0.003989456
111	0x3c8dea99	0.017323779
112	0x3bad6838	0.005291965
113	0xba65f7f8	-0.0008772607
114	0x3bdc60b6	0.006725396
115	0xbc99f8d3	-0.018795406
116	0x3bbff1d3	0.005857685
117	0x3c849bc0	0.016187549
118	0x3c268932	0.010164546
119	0xbc142c16	-0.009043714
120	0x3c2f5bd9	0.0107030505
121	0xba63e6cc	-0.0008693754
122	0x3bf3d74c	0.007441437
123	0x3b81473c	0.0039452594
124	0xbb905a34	-0.0044052843
125	0xba6b2a4d	-0.0008970842
126	0x3c704909	0.01466585
127	0xbc10cea4	-0.008838329
128	0x3f7d6fc6	0.9899868
129	0x3f81269f	1.0089911
130	0x3f7fe0ba	0.9995228
131	0x3f801888	1.0007486
132	0x3f7fa286	0.99857366
133	0x3f810cd2	1.0082037
134	0x3f80cb5a	1.0062058
135	0x3f7fc6ad	0.9991253
136	0x3f800702	1.0002139
137	0x3f81a67e	1.0128934
138	0x3f80e56f	1.0070018
139	0x3f806bc4	1.0032887
140	0x3f81062e	1.0080011
141	0x3f820812	1.0158713
142	0x3f7fd847	0.9993939
143	0x3f7e4e9a	0.99338686
144	0x3f7d946d	0.99054605
145	0x3f7c355c	0.9851892
146	0x3f8179d6	1.0115306
147	0x3f7ae68f	0.98008054
148	0x3f801bed	1.0008522
149	0x3f80beef	1.0058268
150	0x3f7dcc82	0.9914018
151	0x3f808381	1.0040132
152	0x3f810ae1	1.0081445
153	0x3f809318	1.004489
154	0x3f806f4b	1.0033964
155	0x3f82170c	1.0163283
156	0x3f802905	1.0012518
157	0x3f81d785	1.0143896
158	0x3f7d5ce5	0.9896987
159	0x3f7f1d4f	0.99654096
160	0x3f7d4454	0.98932385
161	0x3f7ec623	0.9952108
162	0x3f7f5aaa	0.9974772
163	0x3f810161	1.0078546
164	0x3f824151	1.0176183
165	0x3f806f68	1.0033998
166	0x3f8004cd	1.0001465
167	0x3f7fb662	0.9988767
168	0x3f7e79cd	0.99404603
169	0x3f814d33	1.0101684
170	0x3f80b753	1.0055946
171	0x3f7dfcbe	0.9921378
172	0x3f801573	1.0006546
173	0x3f7d0784	0.9883959
174	0x3f80f480	1.0074615
175	0x3f7f3ea6	0.9970497
176	0x3f7f641d	0.99762136
177	0x3f812a1d	1.0090977
178	0x3f7e9457	0.994451
179	0x3f7c7d78	0.9862895
180	0x3f7f2093	0.9965908
181	0x3f7d758e	0.990075
182	0x3f7e0ed5	0.9924138
183	0x3f7eb5a7	0.9949593
184	0x3f801170	1.0005322
185	0x3f802708	1.0011911
186	0x3f7ee9f5	0.9957574
187	0x3f7c10a5	0.984629
188	0x3f79c331	0.97563463
189	0x3f7dee02	0.99191296
190	0x3f804af7	1.0022877
191	0x3f7d9126	0.99049604
192	0x3f8090f7	1.004424
193	0x3f811d22	1.0087016
194	0x3f7f498d	0.99721605
195	0x3f80a4cd	1.0050293
196	0x3f80888b	1.004167
197	0x3f7f4664	0.9971678
198	0x3f813444	1.0094075
199	0x3f8029d5	1.0012766
200	0x3f8095e5	1.0045744
201	0x3f7ca79d	0.9869326
202	0x3f815cf2	1.010649
203	0x3f7f5590	0.99739933
204	0x3f7de8ad	0.9918316
205	0x3f7f702c	0.99780536
206	0x3f7dde46	0.9916729
207	0x3f807a68	1.0037355
208	0x3f7e59ab	0.9935557
209	0x3f8050f9	1.0024711
210	0x3f80f0b3	1.0073456
211	0x3f806842	1.0031817
212	0x3f7e6503	0.9937288
213	0x3f7cca69	0.98746353
214	0x3f7d9fe9	0.9907213
215	0x3f7c65ab	0.98592633
216	0x3f7e1603	0.9925234
217	0x3f81824b	1.0117887
218	0x3f7e8622	0.9942342
219	0x3f7fe4dc	0.99958587
220	0x3f81a14d	1.012735
221	0x3f7e96d4	0.99448895
222	0x3f80a8f3	1.0051559
223	0x3f7f9bd8	0.99847174
224	0x3f7ad712	0.9798442
225	0x3f7da818	0.99084616
226	0x3f7faec9	0.99876076
227	0x3f7d17fc	0.9886472
228	0x3f80e9d4	1.0071359
229	0x3f7b3ca6	0.9813942
230	0x3f810ab0	1.0081387
231	0x3f816a25	1.0110518
232	0x3f80565e	1.0026357
233	0x3f7c0423	0.9844381
234	0x3f804eef	1.0024089
235	0x3f7e3cc9	0.993115
236	0x3f8129d2	1.0090888
237	0x3f8135d5	1.0094553
238	0x3f7cf33f	0.98808664
239	0x3f7f7f67	0.99803776
240	0x3f7ed58c	0.99544597
241	0x3f7f7f80	0.99803925
242	0x3f80cfa8	1.0063372
243	0x3f7e9792	0.9945003
244	0x3f7e9ff2	0.9946281
245	0x3f80b50e	1.0055254
246	0x3f80507e	1.0024564
247	0x3f81caae	1.0139978
248	0x3f80c83b	1.0061105
249	0x3f7f5a4a	0.99747145
250	0x3f80c8a9	1.0061237
251	0x3f7f721c	0.9978349
252	0x3f7db77b	0.99108094
253	0x3f7d39e8	0.9891648
254	0x3f804021	1.001957
255	0x3f7e8f09	0.99437004

lstm.weight_ih_l1 f4 [512, 128]
0	0xbd1065d8	-0.035253376
1	0x3ceed7e8	0.029155686
2	0xbd3dab5b	-0.046305995
3	0xbd70cb0d	-0.058787394
4	0x3cd5ad72	0.026083682
5	0x3c8293b1	0.015939565
6	0x3d503ad1	0.05083734
7	0x3d2b0002	0.041748054
8	0x3d870010	0.06591809
9	0x3da4bfa6	0.080443665
10	0xbcc3f169	-0.023918824
11	0xbbc5a99f	-0.0060321833
12	0xbcbb1941	-0.02283919
13	0xbd8a66ee	-0.067579135
14	0x3d0f1a35	0.034937102
15	0x3c905dd2	0.017622862
16	0xbd96979a	-0.073531345
17	0x3b145df1	0.0022639001
18	0xbd571f1b	-0.0525199
19	0x3aa67b8a	0.0012701612
20	0xbd742016	-0.059600912
21	0xbd751fe0	-0.05984485
22	0xbcc25aa5	-0.023724863
23	0xbd934841	-0.07191516
24	0x3d9557f9	0.0729217
25	0x3db826ea	0.08991797
26	0xbdacfdff	-0.084468834
27	0x3c67507d	0.014118311
28	0x3cc05676	0.023478728
29	0xbd793067	-0.060837176
30	0xbbea2b9c	-0.007146312
31	0xbd3ac59c	-0.04559861
32	0x3c5905fa	0.013246054
33	0xbd309356	-0.04310926
34	0xbdc12366	-0.0943058
35	0x3d6aff68	0.05737248
36	0xbdb4a200	-0.088199615
37	0xbdafee3a	-0.0859036
38	0x3d9e0612	0.077160016
39	0xbdba9201	-0.09109879
40	0x3c968c44	0.01837743
41	0x3db19c6e	0.08672415
42	0x3da83622	0.0821345
43	0x3dc32ad2	0.09529652
44	0xbd0e7a1d	-0.034784425
45	0x3db48a18	0.08815402
46	0xbd80947a	-0.0627832
47	0xbde18d6c	-0.11013302
48	0x3d767564	0.060170546
49	0x3d915b87	0.070975356
50	0x3bc5016c	0.0060121324
51	0x3d1f143e	0.038837664
52	0xbd907697	-0.07053869
53	0x3d24e4da	0.040257312
54	0xbd7e29e3	-0.062051665
55	0xbd15f5b0	-0.03661126
56	0x3c2329d1	0.0099587
57	0x3d124fe6	0.03572073
58	0x3d910b6c	0.07082257
59	0xba0218d2	-0.0004962805
60	0x3d0b0869	0.033943567
61	0x3d44f08a	0.04808096
62	0xbd3c10ee	-0.045914583
63	0x3c4b057e	0.012391446
64	0x3d86d511	0.06583608
65	0x3d658a6d	0.056040216
66	0xbbc81d84	-0.006107034
67	0xbdb2f0f3	-0.08737364
68	0xbd2c8793	-0.04212148
69	0xbba5e411	-0.005062588
70	0xbd8db13b	-0.0691857
71	0xbdd67059	-0.10470647
72	0x3da212ce	0.07913743
73	0x3d81ffba	0.06347604
74	0xbbbffd85	-0.0058590793
75	0xbc9fb0d1	-0.019493492
76	0x3ceb91b8	0.028756008
77	0xbd8eff2f	-0.06982266
78	0x3d328e60	0.04359281
79	0xbc741190	-0.014896765
80	0x3c98558e	0.018595483
81	0x3c2196f8	0.009862654
82	0xbd406d91	-0.04697949
83	0xbdb18cb1	-0.08669413
84	0xbda2843a	-0.079353765
85	0xbd47d378	-0.048785657
86	0xbdcf7f13	-0.10131659
87	0x3adb1d1c	0.0016717049
88	0xbcb23915	-0.021755734
89	0xbcf62e95	-0.030051509
90	0xbd940472	-0.072274104
91	0x3dd9b3df	0.10630011
92	0x3d75e30a	0.060030974
93	0x3d9a5e62	0.07537533
94	0xbd7c3d09	-0.061581645
95	0x3cf68f97	0.030097766
96	0x3bcf35f7	0.006323572
97	0x3d2052d7	0.039141502
98	0xbdb8bb96	-0.09020154
99	0x3d7e8fb0	0.06214875
100	0xbd49283e	-0.049110644
101	0xbc739111	-0.0148661295
102	0x3d0bd121	0.034134988
103	0xbd97251d	-0.07380126
104	0x3da1218d	0.078677274
105	0xbbc90bbb	-0.0061354316
106	0x3b995249	0.0046789986
107	0xbcb31d35	-0.021864513
108	0x3de4d5f1	0.111736186
109	0x3bfd9846	0.0077390997
110	0x3da0dac8	0.07854229
111	0xbd41c0b0	-0.0473029
112	0xbd121504	-0.035664573
113	0x3d8d8035	0.06909219
114	0x3d898472	0.06714715
115	0x3dacbdd6	0.08434646
116	0x3d7dd81e	0.061973684
117	0x3d2b30fa	0.041794755
118	0xbdc6ecb1	-0.09713114
119	0xbd80d31c	-0.06290266
120	0xbd86ec2f	-0.06588017
121	0xbd933ac4	-0.07188943
122	0xbd8505cc	-0.06495246
123	0xbd73df4e	-0.05953913
124	0xbc83b38d	-0.016076827
125	0x3c5120d3	0.012764174
126	0xbd63e256	-0.055635773
127	0x3d227ead	0.03967159
128	0xbdbf5544	-0.09342435
129	0xbd7f15bf	-0.062276598
130	0xbda6d021	-0.08145166
131	0xbc82b850	-0.015957028
132	0x3c1ab3eb	0.00944231
133	0x3dc3b7c4	0.09556535
134	0x3dc5da44	0.096607715
135	0xbc4b28a2	-0.012399824
136	0x3ae0999c	0.0017135623
137	0xbc949d1b	-0.01814132
138	0xbd8c02d9	-0.06836481
139	0xbc8a195e	-0.0168578
140	0xbdc6a1d0	-0.09698832
141	0x3d201c77	0.039089646
142	0xbd84abac	-0.06478056
143	0xbdbdf8a3	-0.09275939
144	0x3d94a273	0.07257547
145	0xbd80fa83	-0.06297781
146	0xbcb5d0e0	-0.022194326
147	0xbdc4fd2b	-0.096186005
148	0xbd2a3869	-0.041557703
149	0xbda25908	-0.079271376
150	0x3cca953e	0.024729367
151	0xbce3fb66	-0.027829837
152	0x3c9d918b	0.01923444
153	0xbc8fe1a5	-0.01756365
154	0xbdaa30a4	-0.08310059
155	0x3d943d2d	0.07238231
156	0xbc60d323	-0.013722214
157	0xbd9e575b	-0.077315055
158	0xbda10445	-0.078621425
159	0xbd5ac469	-0.053409968
160	0xbdae5b9e	-0.08513568
161	0x3dcd3d20	0.10021424
162	0x3cd8695c	0.026417427
163	0x3c56af88	0.013103373
164	0x3d3cdd0c	0.046109244
165	0xbd1daa78	-0.03849265
166	0xbc145c47	-0.009055204
167	0xbd90ff58	-0.07079953
168	0xbc5a6be6	-0.013331389
169	0x3db45f98	0.088072956
170	0x3bac1244	0.005251201
171	0x3d9d02c0	0.0766654
172	0xbd7c891a	-0.061654188
173	0x3dba26b9	0.09089417
174	0x3cc19cfe	0.02363443
175	0x3a2156a1	0.00061545713
176	0xbd75ea77	-0.060038056
177	0xbccb34a8	-0.024805382
178	0xbd104928	-0.035226017
179	0xbc750dfb	-0.0149569465
180	0x3d81b4db	0.063333236
181	0xbcd87393	-0.026422298
182	0xbaf116b7	-0.001839361
183	0xbda1d8e1	-0.079026945
184	0x3c758202	0.01498461
185	0xbd856aa8	-0.06514484
186	0x3d709b7d	0.058742035
187	0xbdad066d	-0.08448491
188	0xbd55cbb3	-0.052196216
189	0xbca74620	-0.02041918
190	0x3b9153c7	0.004435036
191	0x3db6fa47	0.08934455
192	0xbdc73952	-0.0972773
193	0xbd7afa07	-0.0612736
194	0x3d10a61a	0.035314657
195	0xbd0a0c13	-0.03370292
196	0xbbcd2ddc	-0.0062615704
197	0x3d85fd38	0.06542438
198	0x3c9f0fbe	0.019416686
199	0xbdc86ab8	-0.0978598
200	0xbcc92faf	-0.02455887
201	0x3d0dac85	0.034588356
202	0xbc925a8c	-0.017865442
203	0x3d0092df	0.031390067
204	0xbd94e748	-0.07270676
205	0x3dad85d2	0.0847279
206	0xbd5eb241	-0.054369215
207	0x3d9e095f	0.07716631
208	0xbd8057d5	-0.06266753
209	0x3c97f71e	0.018550452
210	0xbd3bd4c2	-0.0458572
211	0x3d509f12	0.05093295
212	0xbd934253	-0.07190385
213	0xbc8b99e8	-0.017041162
214	0x3d6273f1	0.05528635
215	0xbcb3012d	-0.021851147
216	0x3dab7584	0.08372024
217	0x3d293cf1	0.041317884
218	0xbdbc886b	-0.09205707
219	0xbce004d8	-0.02734606
220	0x3cf0adf5	0.029379824
221	0x3bd7dc4a	0.00658754
222	0x3d2466ac	0.040136978
223	0xbda3754f	-0.07981359
224	0x3d3d1f34	0.046172336
225	0xbd92f3bd	-0.07175396
226	0xbc957b7a	-0.018247355
227	0x3dc7d17b	0.09756752
228	0x3dc5d23d	0.096592404
229	0x3c231631	0.009954021
230	0xbd1252df	-0.035723563
231	0xbcd18c35	-0.025579551
232	0x3dc74284	0.09729484
233	0x3d287a1b	0.041132074
234	0x3c7c4b9c	0.015398886
235	0xbd0cc9c0	-0.03437209
236	0x3cc1f1ec	0.023674928
237	0x3d6ad5f2	0.05733294
238	0xbd8dafe8	-0.06918317
239	0xbd8a83db	-0.06763431
240	0x3d8599b5	0.06523458
241	0x3d0bb85a	0.03411136
242	0xbd962de6	-0.07332973
243	0x3da9286e	0.082596645
244	0x3d6014e4	0.054707423
245	0x3c9f0671	0.019412251
246	0xbd41449c	-0.04718457
247	0xbbf65d3c	-0.0075184386
248	0x3d8607f8	0.06544489
249	0xbc1ef811	-0.009702698
250	0xbc64b105	-0.01395822
251	0x3ce4b1fd	0.027916903
252	0x3a78f0d5	0.0009496336
253	0xbd2c1944	-0.042016283
254	0xbd8bcfb6	-0.06826727
255	0xbb5477b7	-0.0032419988

lstm.weight_hh_l1 f4 [512, 128]
0	0x3ce7a2a4	0.028275795
1	0xbcef362c	-0.029200636
2	0xbd2ff6af	-0.042959865
3	0x3d633554	0.05547078
4	0xbd545639	-0.05184004
5	0x3bf96f07	0.0076121124
6	0x3ce2f4ee	0.027704682
7	0x3d945be7	0.072440915
8	0xbcaa2776	-0.02077077
9	0xbca55157	-0.020180387
10	0xbc17829b	-0.009247447
11	0xbcf00b0c	-0.029302143
12	0x3d213a86	0.039362453
13	0xbc7f4cd1	-0.015582279
14	0xbd6ac850	-0.05731994
15	0xbd0ba259	-0.034090374
16	0x3d1a444f	0.0376628
17	0x3d8331be	0.06405972
18	0xbb79c67a	-0.0038112686
19	0x3cb6a224	0.022294112
20	0x3c1a6d18	0.009425424
21	0xbd12a477	-0.035801377
22	0xbc8d2a06	-0.017231952
23	0x3cbae042	0.022812013
24	0xbd574103	-0.052552234
25	0xbb7624ed	-0.003755863
26	0x3d24dcf1	0.04024977
27	0xbc5bf9c1	-0.013426245
28	0xbd80259e	-0.06257175
29	0x3db83fc0	0.08996534
30	0x3d6ba39a	0.05752907
31	0x3e12d3a5	0.14338548
32	0x3db0f39c	0.08640215
33	0xbd864701	-0.06556512
34	0x3d72b8a6	0.059258126
35	0xbcfdde93	-0.03098992
36	0xbd1f0e94	-0.038832262
37	0x3cf2f2e7	0.02965684
38	0xbc952074	-0.018203951
39	0xbd05fa3f	-0.032709356
40	0x3d178639	0.03699324
41	0x3d9af294	0.07565799
42	0x3aab6016	0.00130749
43	0xbadcbbd6	-0.0016840647
44	0x3c061287	0.008183128
45	0x3c486315	0.012230654
46	0xbc5b7352	-0.013394194
47	0xbd50aaf3	-0.05094428
48	0x3ac5c102	0.0015087428
49	0x3d62b846	0.055351518
50	0xbcaed460	-0.021341503
51	0x3dbbeab6	0.09175627
52	0xbd01e46b	-0.031711977
53	0x3d66aee9	0.05631915
54	0x3c8a072c	0.016849123
55	0x3d673158	0.056443542
56	0xbd3d775d	-0.04625641
57	0x3c843916	0.016140502
58	0x3d23e72a	0.040015377
59	0x3c8eba74	0.017422892
60	0xbd921d14	-0.071344525
61	0xbc216f11	-0.00985314
62	0x3d615a5e	0.05501782
63	0x3d091c3a	0.033474185
64	0x3c921c10	0.017835647
65	0xbc8a9329	-0.016915875
66	0x3ca3568d	0.019938732
67	0x3cc2b08c	0.023765825
68	0x3dbc4858	0.09193486
69	0xbd4c63a4	-0.049899712
70	0xbd89e1d4	-0.067325264
71	0xbcf14148	-0.029450074
72	0xbd63d98b	-0.055627387
73	0x3d223991	0.03960568
74	0xbd49b6d0	-0.04924661
75	0xbce8dcd9	-0.02842562
76	0x3c22125e	0.009892074
77	0xbc42f7d0	-0.011899903
78	0xbc32c070	-0.0109101385
79	0xbc83a472	-0.016069625
80	0x3daaa323	0.08331897
81	0xbd9821f0	-0.07428348
82	0xbcce128b	-0.025155326
83	0xbc6f8507	-0.0146191185
84	0x3d766618	0.060155958
85	0xbd1ca403	-0.03824235
86	0xbd17d7af	-0.037070926
87	0x3c4ab5c7	0.012372441
88	0xba7760fc	-0.0009436754
89	0x3c1fbc3b	0.0097494675
90	0xbc1a6494	-0.009423394
91	0xbd2ed400	-0.042682648
92	0x3c6a283e	0.014291821
93	0xbc2666c9	-0.010156342
94	0x39138fbc	0.00014072558
95	0x3dab3c31	0.0836109
96	0x3cadb5e3	0.021204894
97	0xbd8e36d3	-0.06944051
98	0x3d0252f8	0.031817406
99	0xbdb73019	-0.08944721
100	0x3da13209	0.078708716
101	0x3d2d8947	0.042367246
102	0x395c5de4	0.00021015812
103	0x3dbec0b2	0.093140975
104	0x3ce65593	0.028116977
105	0x3c91abc6	0.017782103
106	0x3d44ef0d	0.04807954
107	0xbd1bd6f9	-0.03804681
108	0x3caa3903	0.020779138
109	0xbc4b892a	-0.012422839
110	0xbd36117c	-0.04445027
111	0xbd1a350e	-0.037648253
112	0xbd2f49ec	-0.042795107
113	0x3d669308	0.056292564
114	0x3c87949b	0.016550353
115	0xbdda4a2e	-0.1065868
116	0x3d8254cc	0.0636383
117	0xbd800147	-0.06250244
118	0x3cf49a51	0.02985874
119	0xbca9a394	-0.020707883
120	0x3c457ece	0.012054158
121	0xbd656fb5	-0.056014735
122	0xbd3a8e59	-0.04554591
123	0x3c54781e	0.012968091
124	0x3c0d4de6	0.0086245295
125	0xbc8c4bc9	-0.01712598
126	0xbd02f51f	-0.031972047
127	0x3b09860e	0.0020984444
128	0xbc67bbff	-0.014143943
129	0xbd5b2360	-0.053500533
130	0xbc990f9e	-0.018684205
131	0x3d2f9b73	0.042872857
132	0xbc37b1e6	-0.011211848
133	0xbd1da3a8	-0.038486153
134	0x3d89e2f1	0.06732739
135	0xbca82ba8	-0.02052863
136	0x3d048d51	0.032361332
137	0xbc9f6624	-0.019457884
138	0xbd05f4be	-0.032704107
139	0xbce41712	-0.027843032
140	0x3d0f7823	0.03502668
141	0x3cee0a9a	0.02905779
142	0xbc543698	-0.012952469
143	0x3c28f0e2	0.010311337
144	0xbdba566f	-0.09098517
145	0xbcba5c20	-0.022749007
146	0x3d9fa9cf	0.0779606
147	0xba45e08e	-0.0007548415
148	0x3d8ddf37	0.069273405
149	0x3cc75bcb	0.024335762
150	0xbd9347dd	-0.07191441
151	0x3a826aa0	0.000994999
152	0xbd9fb43a	-0.07798047
153	0xbdd9e198	-0.10638732
154	0xbc5560d2	-0.013023572
155	0x3df98031	0.12182654
156	0x3c19d28c	0.009388577
157	0x3bc84ef0	0.0061129257
158	0x3dcaa234	0.09894219
159	0x3b3450a2	0.0027513881
160	0xbcc65e81	-0.024214985
161	0x3a7755b4	0.0009435073
162	0xbcb5d72b	-0.022197327
163	0xbd67b03d	-0.05656456
164	0xbc602071	-0.01367961
165	0xbc8a24f5	-0.016863326
166	0x3da05a2a	0.078296974
167	0xbc2983d9	-0.010346376
168	0xbc68515a	-0.014179552
169	0x3d972a7b	0.073811494
170	0x3cf1fdf9	0.029540049
171	0xbd1db8c8	-0.0385063
172	0xbc10d324	-0.008839402
173	0x3ca6dbb8	0.020368442
174	0xbbdf1415	-0.006807814
175	0xbd3396df	-0.043845054
176	0xbd056d78	-0.0325751
177	0x3aa146ab	0.0012304386
178	0x3d37be04	0.044858947
179	0xbc988e81	-0.018622639
180	0x3d0c7ace	0.034296803
181	0xbcb3cfb0	-0.021949619
182	0x3d6fd245	0.058550138
183	0xbd9ac41b	-0.075569354
184	0x3c095168	0.008381225
185	0xbaa8b1a7	-0.0012870327
186	0x3bb97d89	0.005660717
187	0xbd05b02b	-0.03263871
188	0xbcff753b	-0.03118383
189	0xbd115130	-0.035477817
190	0xbd7483aa	-0.059695877
191	0xbd6eac3c	-0.058269724
192	0x3ca3ea2f	0.020009128
193	0x3cd816de	0.026378091
194	0xbc9fa73e	-0.019488927
195	0xbb05ee9c	-0.0020436412
196	0xba821139	-0.0009923346
197	0x3de63ef9	0.1124248
198	0xbd5c4a94	-0.05378206
199	0xbc42a398	-0.011879824
200	0x3cdd7f9c	0.027038388
201	0xbd0178df	-0.031609412
202	0xbcccc1bb	-0.024994722
203	0x3d1be036	0.03805562
204	0xbd353132	-0.04423637
205	0x3d3729ec	0.044717714
206	0xbd56bddd	-0.05242716
207	0x3d1e35ba	0.038625456
208	0xbd22c6f5	-0.03974052
209	0xbca8a953	-0.020588553
210	0x3d556f9e	0.0521084
211	0x3c8896da	0.016673494
212	0xbd0cc8fe	-0.03437137
213	0x3d8edb4e	0.06975423
214	0xbc8d3c03	-0.01724053
215	0x3dbc2435	0.091865934
216	0x3cbadb56	0.022809666
217	0xbd5c273e	-0.05374836
218	0xbd476c02	-0.04868699
219	0xbcbdfc71	-0.023191663
220	0xbc60004f	-0.013671949
221	0xbc9e4c02	-0.019323353
222	0x3d2cec47	0.04221752
223	0x3cd913eb	0.026498755
224	0x3db9dcb9	0.09075303
225	0x3cbfae6c	0.0233986
226	0x3da56374	0.0807561
227	0xbcc5b44e	-0.024133828
228	0x3d65e4b7	0.056126323
229	0xbe075e29	-0.13219513
230	0x3c8ab827	0.016933514
231	0x3b610fdf	0.0034341735
232	0x3da36dea	0.07979949
233	0x3d0b875d	0.03406464
234	0x3cb55d95	0.02213935
235	0x3cbd9422	0.023141924
236	0x3d1ba207	0.03799632
237	0x3cbeea1f	0.023304997
238	0x3d5a0c7a	0.053234555
239	0xbcced6a7	-0.025248839
240	0xbc489cd0	-0.012244418
241	0xbcdd9a0f	-0.027051
242	0xbd0e824b	-0.034792226
243	0x3cdbe6f5	0.026843527
244	0x3a3f8d78	0.0007307152
245	0xbc8fb556	-0.017542522
246	0xbc0c4bc4	-0.008562986
247	0xbc9b998a	-0.018994112
248	0x3a889f6f	0.0010423491
249	0xbcac7ebb	-0.021056524
250	0xbc10e0ba	-0.0088426415
251	0xbcb2139b	-0.021737864
252	0x3d2016a7	0.039084103
253	0xbd433c8c	-0.047665164
254	0x3d83ba87	0.06432062
255	0xbd363a53	-0.044489216

lstm.bias_ih_l1 f4 [512]
0	0x3c54af3c	0.012981232
1	0xbc01a126	-0.007911956
2	0x3bc97ff8	0.0061492883
3	0x3b6c4b18	0.0036055502
4	0xba9c9e4a	-0.0011949029
5	0x3c469161	0.012119622
6	0xbbcbd5a4	-0.0062205363
7	0x3c1beb74	0.009516586
8	0xbc876894	-0.016529359
9	0xbad69885	-0.0016372359
10	0x3c5e6300	0.013573408
11	0x3b8088da	0.003922564
12	0x3c840708	0.016116634
13	0x3c52b7ca	0.012861202
14	0x3b97d711	0.004633792
15	0x3ba7ebe1	0.0051245545
16	0x3bdc313b	0.006719736
17	0xbb7fc546	-0.0039027496
18	0xbb9eb79b	-0.004843665
19	0x3b8bd923	0.004267828
20	0xbbb093e9	-0.005388726
21	0x3aa796a8	0.0012785988
22	0xbc6bfa7c	-0.014402982
23	0x3c64a38f	0.013955011
24	0xbbc11d90	-0.0058934167
25	0x3be8cd36	0.007104541
26	0xb962e603	-0.00021638726
27	0xbb2db19a	-0.0026503564
28	0xbbf1afc3	-0.0073756888
29	0x3ca46d12	0.02007154
30	0x3a73fd33	0.0009307444
31	0x3ca1de52	0.01975933
32	0x3c09a16f	0.008400305
33	0xbc81296f	-0.015766827
34	0xbbe987fe	-0.0071268072
35	0x3beb51ab	0.0071813664
36	0x3a283771	0.0006416953
37	0xbb0d1a51	-0.0021530578
38	0xba4f0b7d	-0.0007898135
39	0x3c8695ea	0.016428906
40	0x3c520245	0.012817924
41	0x3cc104c7	0.023561848
42	0x3c543871	0.01295291
43	0xbc7d0e1d	-0.015445259
44	0xbbadf242	-0.0053084204
45	0xbb5c0080	-0.0033569634
46	0x3c05fce2	0.008177968
47	0x3b15b47c	0.0022843173
48	0x3c457819	0.012052559
49	0xbb9f0c17	-0.004853736
50	0xbb0b18ef	-0.0021224578
51	0x3b33fd6b	0.0027464281
52	0x3b3fcb74	0.0029265555
53	0x3bf046d2	0.007332661
54	0x3b5f7718	0.0034098085
55	0x3ba70ee4	0.0050982106
56	0x3b87ec30	0.004148029
57	0xbbef5959	-0.0073043522
58	0xbbe819ce	-0.0070831543
59	0xbc12b146	-0.008953398
60	0x3c347415	0.011014004
61	0x3ba10a04	0.004914524
62	0x3c4b01cf	0.012390568
63	0xbb06f2ea	-0.0020591565
64	0x3b9ecb4c	0.004846012
65	0xba9af7bb	-0.0011823097
66	0xb9d70e92	-0.0004101885
67	0x3b1420ea	0.0022602626
68	0xbbd418f4	-0.006472701
69	0x3b58af1b	0.0033063355
70	0xbba8a592	-0.0051466906
71	0x3bf6d5fb	0.0075328327
72	0x3c427ad5	0.011870106
73	0x3c2f7053	0.0107079325
74	0xbb127202	-0.0022345786
75	0x3c765a7b	0.015036221
76	0xbc3a25d3	-0.011361557
77	0x3bc76a3c	0.006085662
78	0xbbe3ab7b	-0.0069479323
79	0x3bf1c880	0.007378638
80	0x3bac157d	0.005251585
81	0xbb942b89	-0.0045217914
82	0x3b04c559	0.002025923
83	0x3c7290ea	0.014805058
84	0xbb690ab3	-0.0035559356
85	0xbacce257	-0.0015631419
86	0x3c020eac	0.007938068
87	0xbb60d7a8	-0.0034308229
88	0x3c50f3c1	0.012753428
89	0xbb48af3b	-0.0030622024
90	0x3b52bb19	0.0032154976
91	0x3b1a56f9	0.0023550375
92	0xbc1f921b	-0.009739424
93	0xba6c0532	-0.00090034597
94	0x3c3262e3	0.010887834
95	0x3aebd5cc	0.0017992794
96	0xbc809eef	-0.015700785
97	0x3be0d2e1	0.006861076
98	0xbca29e10	-0.01985076
99	0xbb3b6bdd	-0.0028598227
100	0xbc32fc53	-0.010924417
101	0x3c40a556	0.011758169
102	0x3bd67a5e	0.006545349
103	0x3c01736c	0.007901054
104	0xbbb2a367	-0.005451608
105	0x3b208043	0.0024490512
106	0xbb59029e	-0.0033113132
107	0xbc01d391	-0.0079239765
108	0x3b824994	0.0039760564
109	0x3beef313	0.0072921603
110	0x39126116	0.00013959812
111	0x3c36018a	0.011108765
112	0x3ca10b60	0.019658744
113	0xbb430852	-0.0029759598
114	0x3c5ab7f0	0.013349518
115	0x3c6f53a1	0.014607341
116	0x3bdf0bf7	0.0068068462
117	0x3c4ff6bc	0.012693103
118	0x3bc350fb	0.0059605814
119	0xba7aa1e2	-0.00095608656
120	0x3c916621	0.017748894
121	0xbb7ecb72	-0.0038878587
122	0xbb4d7c44	-0.0031354586
123	0xbb67ca44	-0.0035368362
124	0x3b64c999	0.00349102
125	0x3c8112dd	0.015756065
126	0x3c4fffc1	0.012695254
127	0x3b87db10	0.0041459873
128	0x3f7fc3e1	0.9990826
129	0x3f7d053d	0.9883612
130	0x3f80749f	1.003559
131	0x3f811a43	1.008614
132	0x3f7e4b90	0.9933405
133	0x3f80f726	1.0075424
134	0x3f810690	1.0080128
135	0x3f801926	1.0007675
136	0x3f801465	1.0006224
137	0x3f80eb1e	1.0071752
138	0x3f816d0a	1.0111401
139	0x3f7e8347	0.99419063
140	0x3f81ae43	1.0131305
141	0x3f808d8a	1.0043194
142	0x3f81a67e	1.0128934
143	0x3f7f71f0	0.9978323
144	0x3f7fa383	0.99858874
145	0x3f7b773c	0.9822881
146	0x3f80074c	1.0002227
147	0x3f7e4ec9	0.99338967
148	0x3f7ce3bf	0.9878501
149	0x3f7f3e4e	0.99704444
150	0x3f7bed41	0.98408896
151	0x3f813a5d	1.0095936
152	0x3f7e41a8	0.99318933
153	0x3f7b23e0	0.98101616
154	0x3f800803	1.0002445
155	0x3f7fe4d0	0.99958515
156	0x3f7d1bc8	0.98870516
157	0x3f8076eb	1.0036291
158	0x3f7d82a2	0.99027455
159	0x3f80bd34	1.005774
160	0x3f7c9792	0.9866878
161	0x3f7e007a	0.9921948
162	0x3f802091	1.0009938
163	0x3f80475d	1.0021778
164	0x3f7f8906	0.99818456
165	0x3f7e430a	0.99321043
166	0x3f7ef3dc	0.9959085
167	0x3f7fcb49	0.99919564
168	0x3f7f2483	0.9966509
169	0x3f81aae8	1.0130281
170	0x3f7eae9a	0.9948517
171	0x3f7e031d	0.992235
172	0x3f7d18f5	0.98866206
173	0x3f7f11ac	0.9963634
174	0x3f8025c1	1.0011522
175	0x3f7f3410	0.99688816
176	0x3f80c050	1.0058689
177	0x3f802b53	1.0013222
178	0x3f7cab30	0.9869871
179	0x3f7ed4aa	0.9954325
180	0x3f808346	1.0040061
181	0x3f807585	1.0035864
182	0x3f7d3a55	0.9891713
183	0x3f801cdd	1.0008808
184	0x3f7f3449	0.99689156
185	0x3f7dd98b	0.9916007
186	0x3f8116b8	1.0085058
187	0x3f7cd7e7	0.9876694
188	0x3f81afef	1.0131816
189	0x3f7f74ab	0.99787396
190	0x3f7f3a9b	0.996988
191	0x3f7f681c	0.99768233
192	0x3f81115b	1.0083421
193	0x3f802327	1.0010728
194	0x3f7c5737	0.9857058
195	0x3f7dac53	0.9909107
196	0x3f7dd871	0.9915839
197	0x3f7f2e52	0.99680054
198	0x3f7ed808	0.9954839
199	0x3f7f6aa7	0.99772114
200	0x3f8097ce	1.0046327
201	0x3f7ef27a	0.9958874
202	0x3f813fdc	1.0097613
203	0x3f80c9ab	1.0061544
204	0x3f806ba2	1.0032847
205	0x3f829205	1.0200812
206	0x3f7e20b9	0.9926868
207	0x3f81ed3c	1.0150523
208	0x3f7ea1a6	0.99465406
209	0x3f7f7c41	0.9979897
210	0x3f8066ee	1.0031412
211	0x3f7f8578	0.9981303
212	0x3f7ee9ec	0.99575686
213	0x3f7e7068	0.9939027
214	0x3f824878	1.0178366
215	0x3f81b40e	1.0133073
216	0x3f7fb1e4	0.99880815
217	0x3f7ebedd	0.99509984
218	0x3f7d4585	0.98934203
219	0x3f810aac	1.0081382
220	0x3f7cb50a	0.98713744
221	0x3f7fff20	0.99998665
222	0x3f7fe27d	0.9995497
223	0x3f80800b	1.0039076
224	0x3f7a632c	0.97807574
225	0x3f809220	1.0044594
226	0x3f7eccd8	0.99531317
227	0x3f80112e	1.0005243
228	0x3f7bd00a	0.9836432
229	0x3f800bb5	1.0003573
230	0x3f807ebd	1.0038677
231	0x3f812a0f	1.009096
232	0x3f7e8803	0.9942629
233	0x3f7d683a	0.9898716
234	0x3f7fa28b	0.99857396
235	0x3f7f7d43	0.9980051
236	0x3f814d83	1.010178
237	0x3f810182	1.0078585
238	0x3f7efe18	0.99606466
239	0x3f7feea6	0.99973524
240	0x3f813bda	1.009639
241	0x3f80407a	1.0019677
242	0x3f816eff	1.0111998
243	0x3f813728	1.0094957
244	0x3f80eab4	1.0071626
245	0x3f81de57	1.0145978
246	0x3f7fa847	0.99866146
247	0x3f7ea7c7	0.9947476
248	0x3f80fca6	1.0077102
249	0x3f8080b3	1.0039276
250	0x3f7fd466	0.9993347
251	0x3f7e0166	0.99220884
252	0x3f7e6b67	0.9938263
253	0x3f80f162	1.0073664
254	0x3f7f2446	0.99664724
255	0x3f809263	1.0044674
