output/model.pt (torch, 958727 bytes, 14 tensors)

backbone.weight_ih_l0 f4 [512, 45]
0	0xbcfbc40a	-0.030733127
1	0xbd3ec2a9	-0.04657236
2	0xbd49fe8c	-0.04931502
3	0x3d4100cb	0.047119897
4	0xbda45ad2	-0.08025135
5	0xbdc16f6b	-0.094450794
6	0x3da9fb61	0.082999
7	0x3d971d6a	0.07378657
8	0x3d753cc8	0.05987242
9	0x3da377bd	0.07981823
10	0x3da4fd1d	0.0805609
11	0x3d9a0c9d	0.07521937
12	0x3cfc75d1	0.030817898
13	0xbdd742aa	-0.10510762
14	0xbd478666	-0.048712157
15	0x3d9015dc	0.07035419
16	0xbdc4eb91	-0.09615243
17	0x3c18adee	0.009318812
18	0x3d79ae9d	0.06095754
19	0x3ce67f01	0.028136732
20	0x3d945c32	0.07244147
21	0xbd48b7c7	-0.04900339
22	0x3daefd3e	0.08544396
23	0xbd21a16e	-0.039460592
24	0x3c86e077	0.016464455
25	0x3d5889a4	0.05286564
26	0xbd8d389b	-0.06895562
27	0xbd5bf9a1	-0.05370486
28	0xbc0e94a0	-0.008702427
29	0xbc0090df	-0.00784704
30	0x3cc32845	0.023822913
31	0xbd1e08f8	-0.038582772
32	0xbbca67ac	-0.0061769094
33	0x3d61c40f	0.055118617
34	0xbd0841aa	-0.033265747
35	0x3d7df3f5	0.062000234
36	0x3d4626db	0.0483769
37	0x3c8dadba	0.017294753
38	0x3d437c71	0.0477261
39	0xbc75abf3	-0.014994609
40	0xbc85200e	-0.016250636
41	0xbd9aff40	-0.07568216
42	0x3d1766f8	0.036963433
43	0x3bc06376	0.0058712317
44	0x3d34b7cf	0.044120606
45	0xbd2a32ed	-0.041552473
46	0x3da6d82b	0.081466995
47	0x3d6f3aed	0.058405805
48	0x3d3a8034	0.04553242
49	0x3d142843	0.03617121
50	0xbc95c20d	-0.018281007
51	0xbc06f80b	-0.008237849
52	0xbc69f8ef	-0.014280542
53	0xbd8caad5	-0.06868521
54	0x3d75add9	0.059980247
55	0x3d837a49	0.064198084
56	0xbd7d88ee	-0.061898164
57	0x3d402f69	0.046920214
58	0x3e04c048	0.12963974
59	0x3df70f07	0.12063413
60	0xbcf70bf1	-0.030157061
61	0xbd32ad90	-0.043622553
62	0x3bf3348d	0.007422036
63	0x3d9714d7	0.07377022
64	0x3c9a55cf	0.018839745
65	0xbd494458	-0.049137443
66	0xbce50740	-0.027957559
67	0x3d4bc6d2	0.049750157
68	0x3d46d682	0.048544414
69	0x3da1506b	0.07876667
70	0x3d97c73f	0.0741105
71	0x3e06cad2	0.13163307
72	0xbd71b72f	-0.059012588
73	0xbcfdf0fd	-0.030998701
74	0xbc121ded	-0.008918268
75	0x3dcf8a7b	0.10133835
76	0x3cc6a6ad	0.0242494
77	0x3c45b507	0.012067086
78	0xbde2876e	-0.110609874
79	0x3dd2fcc0	0.103021145
80	0xbd2d56e1	-0.042319182
81	0xbd3339a0	-0.043756127
82	0x3cba60d4	0.02275125
83	0xbd444d16	-0.047925077
84	0xbd94a895	-0.07258717
85	0xbc203e4b	-0.009780477
86	0x3cd539e0	0.026028574
87	0x3d8b17fd	0.06791685
88	0x3db68949	0.08912904
89	0x3d7c9279	0.061663125
90	0x3d9540f2	0.07287778
91	0x3cb6572b	0.022258362
92	0x3d93c8d7	0.072160415
93	0xbd5a92fa	-0.053362824
94	0xbd1b4653	-0.037908863
95	0xbd43aa7f	-0.04777002
96	0x3dbb60ed	0.091493465
97	0xbd8be272	-0.068303004
98	0x3ce3d651	0.027812155
99	0xbce23b8b	-0.027616283
100	0x3da31500	0.0796299
101	0xbda917b8	-0.08256477
102	0x3cf87273	0.030328011
103	0x3d9209b1	0.07130755
104	0xbbf22684	-0.0073898453
105	0x3d7c548d	0.06160407
106	0x3ced2c99	0.02895193
107	0x3d4fd914	0.05074413
108	0xbd381745	-0.044944067
109	0x3d536e2c	0.05161874
110	0x3d585504	0.052815452
111	0x3caa7187	0.020806087
112	0x3cc8a3ad	0.02449211
113	0xbd38f0ad	-0.0451514
114	0xbda05d62	-0.07830311
115	0x3d747776	0.05968424
116	0x3d22d9c3	0.039758455
117	0xbd07b905	-0.033135433
118	0x3d6a4e93	0.05720384
119	0x3d9736b0	0.07383478
120	0x3c7fae38	0.015605502
121	0x3d81d6fc	0.06339833
122	0x3d2959ae	0.04134529
123	0x3c0acc7b	0.0084716035
124	0xbd891ae5	-0.06694583
125	0xbbeaf713	-0.007170567
126	0xbbeadfd4	-0.0071677957
127	0x3db26ab8	0.08711761
128	0xbcf7708f	-0.03020504
129	0xbd49ea05	-0.049295444
130	0xbd549bf6	-0.05190655
131	0x3ac9b199	0.0015388011
132	0xbcb47e52	-0.02203289
133	0x3d1bc435	0.038028914
134	0xbcfd9851	-0.03095642
135	0xbda3124e	-0.07962476
136	0xbdc5c965	-0.096575536
137	0x3d3fb9b8	0.046807975
138	0x3d8a9093	0.067658566
139	0xbc9bd4dd	-0.0190224
140	0x3d9d9ea7	0.07696276
141	0x3bf67138	0.007520821
142	0xbda9149e	-0.082558855
143	0xbdb6e85e	-0.08931039
144	0xbda44c82	-0.08022405
145	0x3c6bb970	0.014387473
146	0xbd6aec04	-0.05735399
147	0xbca00e1d	-0.01953798
148	0x3d519ff4	0.051177934
149	0x3c681170	0.014164314
150	0x3dae5c91	0.085137494
151	0xbd94e034	-0.07269326
152	0xbd847ead	-0.06469474
153	0x3dac26c4	0.084058315
154	0xbd9624fa	-0.073312715
155	0xbcca1ea4	-0.024672814
156	0x3cd05d7e	0.025435206
157	0x3dad5c75	0.084649004
158	0x3cf9069f	0.030398665
159	0x3cc4e971	0.024037095
160	0xbd1378a8	-0.03600374
161	0x3c12427f	0.008926987
162	0x3cf52e61	0.029929342
163	0x3d62a5cb	0.055333894
164	0x3d224ea2	0.03962577
165	0x3cb6009a	0.022217084
166	0x3d304239	0.043031905
167	0x3d5fe264	0.054659262
168	0xbdc047ed	-0.09388719
169	0x3d5d478a	0.054023303
170	0xbda8b7ec	-0.08238205
171	0xbc0ed055	-0.008716662
172	0x3cd37d33	0.025816536
173	0x3d863019	0.06552143
174	0xbda6bb4e	-0.08141194
175	0xbdac2a80	-0.08406544
176	0xbd8fe1f1	-0.07025517
177	0xbdcf811d	-0.10132048
178	0x3caa7690	0.020808488
179	0x3d3f1cb4	0.046658233
180	0xbd236a25	-0.03989615
181	0x3db52c5c	0.088463515
182	0x3c7e8002	0.015533449
183	0x3d929702	0.07157709
184	0xbd7e0def	-0.062025007
185	0xbdb1f75a	-0.08689757
186	0x3c65b608	0.01402045
187	0xbd814a20	-0.06312966
188	0x3d4ebb62	0.05047167
189	0x3d230023	0.039795052
190	0xbd2644d2	-0.040592976
191	0xbd8d07b8	-0.06886238
192	0xbd3e7b0b	-0.04650406
193	0x3d80eb2e	0.06294857
194	0xbc3f8656	-0.011689743
195	0x3c66d6b3	0.014089274
196	0x3dabe003	0.08392336
197	0xbc0923cf	-0.008370354
198	0xbd0e4af9	-0.03473947
199	0xbd5fb9bc	-0.05462049
200	0x3d837719	0.064192005
201	0xbd87e206	-0.066349074
202	0x3cf07bbb	0.029355874
203	0xbd2cfec8	-0.042235166
204	0x3dbf80df	0.09350752
205	0x3d4a5eab	0.04940669
206	0x3d9e9ae0	0.07744384
207	0x3dae37e4	0.08506754
208	0xbd8fb640	-0.07017183
209	0x3d178ee6	0.037001513
210	0x3caa5a5c	0.02079504
211	0x3d229ef7	0.039702382
212	0x3d2f1642	0.042745836
213	0x3d648b7e	0.055797093
214	0xbd63b9ab	-0.05559699
215	0x3d9f2a68	0.0777176
216	0xbd4915f1	-0.04909319
217	0x3cf46b69	0.029836373
218	0x3cc9d693	0.02463845
219	0x3c218847	0.009859151
220	0x3cbc0afc	0.022954457
221	0xbcc8cf4c	-0.02451291
222	0xbd2d874f	-0.04236537
223	0xbd00b72a	-0.03142468
224	0xbce16f03	-0.027518755
225	0x3d840386	0.064459845
226	0x3d26bac0	0.040705442
227	0xbda855c4	-0.082194835
228	0x3c154af9	0.009112113
229	0xbd7339cb	-0.059381288
230	0xbd14fea3	-0.036375653
231	0xbd867608	-0.065654814
232	0x3cb71c19	0.022352265
233	0xbc64abd9	-0.013956987
234	0xbd8a13be	-0.06742047
235	0x3caeee0b	0.021353742
236	0x3d394fc3	0.045242082
237	0x3d7ff125	0.062485833
238	0xbcddace4	-0.02705998
239	0x3ce69812	0.028148685
240	0xbd5e8d9e	-0.054334275
241	0xbb857c28	-0.0040736385
242	0xbd90e3a8	-0.07074672
243	0x3d14b6a1	0.03630698
244	0x3d85df39	0.06536717
245	0xbc819462	-0.015817825
246	0x3ae5e8c0	0.0017540678
247	0xbc4c24a4	-0.012459908
248	0x3d83fe88	0.06445032
249	0xbccc4686	-0.024935972
250	0xbd81ee69	-0.06344301
251	0x3b88bbf5	0.004172797
252	0xbc5d635c	-0.013512459
253	0x3db3d19a	0.08780213
254	0x3c9024a5	0.017595598
255	0x3ce9ba2e	0.02853116

backbone.weight_hh_l0 f4 [512, 128]
0	0x3d4c57fe	0.049888603
1	0xbd4b203e	-0.049591295
2	0xbdefee2d	-0.1171535
3	0x3d4f2b88	0.050578624
4	0x3d3fd41b	0.04683314
5	0x3d70d77a	0.058799244
6	0xbd24894b	-0.040169995
7	0x3ca8acde	0.020590242
8	0x3dba50a3	0.090974115
9	0x3d2985ac	0.041387245
10	0x3d6439b5	0.055719096
11	0xbc34296b	-0.010996203
12	0x3d2fce35	0.042921264
13	0x3d8067ac	0.06269774
14	0xbd324735	-0.04352494
15	0xbb8e88a8	-0.004349787
16	0xbc9b1fc4	-0.018936045
17	0xbda89c70	-0.08232963
18	0x3d8d6bca	0.06905325
19	0xbd9e1015	-0.07717911
20	0xbd1ab1f4	-0.037767366
21	0x3d8a1964	0.06743124
22	0xbd8f127c	-0.069859475
23	0x3ca88da8	0.02057536
24	0xbcda3595	-0.026636878
25	0x3d611054	0.054947212
26	0xbc6e9bef	-0.014563545
27	0xbc7bfc99	-0.015380048
28	0x3c33e241	0.010979236
29	0xbdc92447	-0.098213725
30	0x3d8786cc	0.06617507
31	0x3ce6d31e	0.02817684
32	0xbd92849e	-0.07154201
33	0x3d594f0b	0.053053897
34	0x3d811d88	0.06304461
35	0xbc917a13	-0.017758405
36	0x3d7d4e57	0.06184229
37	0xbda09bb4	-0.07842198
38	0xbd062676	-0.032751523
39	0xbcb11533	-0.021616554
40	0xbd8f3c17	-0.06993883
41	0x3d4dda1f	0.050256845
42	0xbcc07886	-0.02349497
43	0xbabc2573	-0.0014354422
44	0x3d8ee734	0.06977692
45	0x3c403152	0.011730509
46	0xbdb68d57	-0.08913677
47	0xbd8913ed	-0.06693254
48	0x3d8836db	0.06651088
49	0x3d4d5181	0.050126556
50	0xbb3de36d	-0.0028974668
51	0x3d23fea5	0.04003777
52	0xbd70cbf7	-0.058788266
53	0x3d6d0a51	0.057871167
54	0xbcc03fb0	-0.023467869
55	0x3cf510c6	0.029915225
56	0xbd340053	-0.04394562
57	0x3ca2dfc7	0.019882096
58	0xbd82a4b1	-0.06379069
59	0xbdb89610	-0.09012997
60	0xbd4544b7	-0.048161235
61	0xbdbc491a	-0.091936305
62	0x3c0fbae1	0.008772583
63	0x3d7662b0	0.06015271
64	0x3d60d2b0	0.054888427
65	0x3d772077	0.060333695
66	0x3af1a6e6	0.001843658
67	0xbbc3537e	-0.005960881
68	0x3d208432	0.03918857
69	0xbd9bfdf2	-0.076167956
70	0xbd94bf02	-0.07262994
71	0x3d0f6eff	0.035017963
72	0xbcfb4312	-0.03067163
73	0xbd1826f9	-0.037146542
74	0x3cd88945	0.026432643
75	0xbd774bc7	-0.060375
76	0x3d6a5c3b	0.057216864
77	0x3d74b4f3	0.05974288
78	0x3d03fc6f	0.03222316
79	0x3d5716ec	0.052512094
80	0x3ca68654	0.020327725
81	0x3ca5c104	0.020233639
82	0x3ca8eeb3	0.020621633
83	0x3db4697c	0.08809182
84	0xbdbc90da	-0.09207316
85	0xbd504ce8	-0.050854594
86	0x3deaf224	0.11471966
87	0xbd4c2d0b	-0.049847644
88	0xbd1bc073	-0.03802533
89	0xbd7e7a06	-0.06212809
90	0xbbdbeab0	-0.0067113265
91	0x3dad75fb	0.084697686
92	0x3bc8cf4d	0.006128228
93	0x3d04029a	0.032229044
94	0xbc9c0ace	-0.01904812
95	0x3dc842a5	0.097783364
96	0x3b9a09fa	0.0047008963
97	0xbd428bf7	-0.047496762
98	0x3d4893ca	0.048969068
99	0xbda6df75	-0.0814809
100	0xbdaa1efb	-0.0830669
101	0xbd6eb5c9	-0.058278833
102	0xbc974aa2	-0.018468205
103	0x3c83776d	0.016048158
104	0xbb2fb97e	-0.0026813443
105	0x3d578bcb	0.05262355
106	0xbca45f28	-0.020064905
107	0xbd65553f	-0.0559895
108	0x3d197522	0.037465222
109	0x3c4a87b3	0.012361455
110	0xbd732169	-0.059358034
111	0x3d2797ba	0.040916182
112	0xbc80f8ff	-0.01574373
113	0xbd5e42e2	-0.054263003
114	0xbd43a566	-0.047765158
115	0x3d0c72b1	0.034289066
116	0xbd10d40a	-0.035358466
117	0xbd9bb0ae	-0.07602058
118	0x3db452f9	0.08804888
119	0x3c5fffe6	0.013671851
120	0xbd3bb4a9	-0.045826588
121	0x3d6e485d	0.05817448
122	0xbd2ee827	-0.042701866
123	0xbc370168	-0.011169769
124	0x3d3119bd	0.043237437
125	0x3d3da478	0.046299428
126	0xbda3e82f	-0.0800327
127	0xbdad8385	-0.08472351
128	0x3c3e5c5f	0.011618703
129	0x3c6590ce	0.014011575
130	0xbda24172	-0.07922639
131	0x3d4fbd6d	0.05071776
132	0x3d30b7d4	0.043144062
133	0x3cd1060c	0.025515579
134	0x3d3d782f	0.046257194
135	0xbd4b9527	-0.04970279
136	0xbd339ae5	-0.04384889
137	0x3cbf118f	0.023323802
138	0x3d6b9ee9	0.057524595
139	0xbd669081	-0.056290153
140	0xbbce744c	-0.0063004848
141	0x3dadf836	0.08494608
142	0xbdc9c42e	-0.098518714
143	0x3d7a1935	0.061059196
144	0xbd81cb42	-0.063375965
145	0xbd80b260	-0.06284022
146	0x3d94802e	0.07251011
147	0xbd3a2c55	-0.045452435
148	0x3d0dde4c	0.034635827
149	0xbcedad7f	-0.029013393
150	0x3db7d106	0.08975415
151	0xbd0eddf8	-0.034879655
152	0x3c9e411d	0.019318158
153	0x3d778cd1	0.060437027
154	0xbdac89fa	-0.084247544
155	0x3dbf7dec	0.093501896
156	0xbd8fe17c	-0.070254296
157	0xbbdd35ca	-0.006750797
158	0xbd876610	-0.06611264
159	0x3d2ed6c0	0.04268527
160	0xbdd360a7	-0.10321169
161	0x3d7db7c1	0.06194282
162	0x3da57673	0.08079233
163	0xbd3c9785	-0.046042938
164	0x3cf9cdcb	0.030493638
165	0xbdaae1ef	-0.08343875
166	0x3d84bccb	0.06481322
167	0x3cadb5c4	0.021204837
168	0xbdcfede2	-0.101527944
169	0x3c01122f	0.00787787
170	0x3d9d5911	0.07683004
171	0xbdcfe83e	-0.101517186
172	0x3b6b0bf4	0.003586528
173	0x3e0b8eb2	0.13628653
174	0xbd197efb	-0.037474614
175	0xbdc9438c	-0.09827337
176	0xbd745cc9	-0.0596588
177	0xbe038dd1	-0.12847067
178	0x3d2263fe	0.03964614
179	0x3da5a36b	0.0808781
180	0x3d10ed9e	0.03538286
181	0x3d9c3cd7	0.07628792
182	0x3d960aa2	0.07326247
183	0x3d938015	0.07202164
184	0x3dc0b0f5	0.09408752
185	0x3cf0870b	0.029361269
186	0xbda22747	-0.07917648
187	0xbbb1eeb8	-0.005430069
188	0x3db0a656	0.08625476
189	0xbc60a61e	-0.01371148
190	0xbd8d3bfc	-0.06896207
191	0x3ad48e4c	0.0016216724
192	0x3b1920b7	0.0023365447
193	0x3d65b6a0	0.056082368
194	0xbd14ed20	-0.036358953
195	0x3b464ebb	0.003025933
196	0x3d660e0c	0.05616574
197	0xbd8a3d47	-0.06749969
198	0x3a0d3aac	0.0005387466
199	0x3da8437b	0.08215996
200	0x3cf3b47c	0.029749148
201	0xbd94b96f	-0.07261931
202	0x3cf1e146	0.029526364
203	0xbd3cba1a	-0.046075918
204	0xbd0c4409	-0.03424457
205	0x3d299823	0.041404855
206	0xbd362a32	-0.044473834
207	0x3d6d41d9	0.057924125
208	0x3d042ee4	0.03227128
209	0xbcfdcfb2	-0.030982826
210	0xbdbf526b	-0.09341892
211	0x3dd1313f	0.10214471
212	0x3ca105f2	0.019656155
213	0x3d07938a	0.03309969
214	0x3df621a1	0.12018133
215	0xbc5e27cd	-0.013559294
216	0xbd2603ee	-0.04053109
217	0x3d970226	0.07373457
218	0x3e008583	0.1255093
219	0xbd0156d5	-0.03157695
220	0xbaa90ba3	-0.0012897145
221	0x3d6c076d	0.05762427
222	0x3dfa9fd0	0.12237513
223	0x3d2efab9	0.042719577
224	0xbd8f75cf	-0.07004892
225	0x3d1d7604	0.038442627
226	0xbd815479	-0.0631494
227	0xbd7c6a22	-0.061624654
228	0xbd5956ec	-0.05306141
229	0xbc9ee4c7	-0.019396199
230	0x3b26a990	0.0025430657
231	0x3d2445d9	0.040105674
232	0xbd882642	-0.06647922
233	0x3ce052f7	0.02738331
234	0xbd0436fc	-0.032279
235	0xbd16dfe5	-0.036834616
236	0x3d6bb3f6	0.05754467
237	0x3c20b690	0.009809151
238	0xbd20590f	-0.039147433
239	0xbd5e134c	-0.05421762
240	0xbcbf1055	-0.023323217
241	0xbd0b55c2	-0.034017332
242	0x3d35ee0b	0.04441647
243	0x3dcdcc51	0.10048736
244	0x3daa0d8a	0.083033636
245	0xbcc195eb	-0.023631057
246	0xbd8abb62	-0.06774022
247	0x3ce52d90	0.027975827
248	0xbd8dfb44	-0.06932691
249	0x3d6932c1	0.05693317
250	0x3bd86d57	0.006604831
251	0x3c56cd57	0.01311048
252	0xbde488e8	-0.11158925
253	0x3de78faa	0.113066986
254	0xbdd61433	-0.104530714
255	0x3cc1c926	0.023655485

backbone.bias_ih_l0 f4 [512]
0	0x3d20c4c0	0.039250135
1	0xbc8b442b	-0.017000278
2	0x3da63be5	0.08116893
3	0x3d92bd97	0.07165068
4	0x3ddc22d6	0.10748832
5	0x3d94a198	0.07257384
6	0x3dd30d7c	0.10305306
7	0xbd5799d7	-0.052636947
8	0x3db18bb5	0.08669225
9	0xbd243f5d	-0.04009949
10	0xbd419b31	-0.047267143
11	0x3bc0e633	0.005886817
12	0xbd36911f	-0.044571992
13	0xbc1c62bc	-0.0095450245
14	0xbcc15ae9	-0.02360292
15	0xbd153726	-0.036429547
16	0xbd11f4f1	-0.035633985
17	0x3d6bdee5	0.057585616
18	0x3c3983d2	0.011322932
19	0xbd98afd8	-0.074554145
20	0x3d5f1ae8	0.05446902
21	0xbc9f9aac	-0.019482933
22	0x3ce4c41a	0.02792554
23	0x3da10118	0.07861537
24	0x3d9b7d8f	0.07592308
25	0x3d048420	0.032352567
26	0x3da6ccd2	0.08144535
27	0xbd11d4c4	-0.0356033
28	0x3d942b0f	0.07234775
29	0xbd659fdf	-0.056060668
30	0x3c96c6bf	0.018405316
31	0x3da2eb40	0.079550266
32	0xbd8951a4	-0.06705025
33	0xbd2cbd42	-0.042172678
34	0x3be4d5d7	0.0069834995
35	0x3dca9f4c	0.09893665
36	0x3d9c2f1d	0.07626174
37	0x3d8e044e	0.06934415
38	0xbc5d620a	-0.013512144
39	0xbd512530	-0.051060855
40	0x3c6c7037	0.014431051
41	0x3dd4b873	0.103867434
42	0x3dcef9ff	0.10106277
43	0xbd779328	-0.060443074
44	0xbcc9d3e7	-0.024637176
45	0x3c8de95e	0.017323192
46	0x3b9f7a62	0.004866884
47	0x3d13a04d	0.036041547
48	0x3d93d20e	0.07217799
49	0x3d67fc20	0.05663693
50	0x3d986c50	0.07442534
51	0x3e092d25	0.13396128
52	0xbd77ad7b	-0.06046818
53	0x3c8a50d0	0.016884238
54	0xbcbf2009	-0.023330705
55	0x3a1ba69c	0.00059376075
56	0x3d9c39ad	0.07628188
57	0xbda9fb04	-0.082998306
58	0x3d7ae4f8	0.061253518
59	0x3d84a0fc	0.06476018
60	0x3d9c6654	0.07636705
61	0x3d1505bd	0.036382426
62	0x3d0e7ff3	0.03478999
63	0xbd55cb61	-0.05219591
64	0xbcc26d36	-0.023733716
65	0xbd236338	-0.039889544
66	0xbd135a68	-0.03597489
67	0x3d58a473	0.052891206
68	0xbbd1555a	-0.0063883485
69	0xbc702736	-0.014657786
70	0x3d935cf5	0.071954645
71	0xbd6618aa	-0.056175865
72	0x3cc06032	0.02348337
73	0x3d355fae	0.0442807
74	0xbc54d095	-0.012989183
75	0x3db8cd31	0.09023512
76	0xbd8fa0e1	-0.07013107
77	0x3d87678b	0.06611546
78	0xbcbe761b	-0.023249676
79	0x3d5da170	0.054109037
80	0x3dc574ae	0.096413955
81	0xbc814061	-0.015777769
82	0xbd8df366	-0.0693119
83	0xbd68cba7	-0.056834843
84	0x3d95c9cd	0.07313881
85	0xbd35c10d	-0.04437356
86	0xbd700596	-0.058599077
87	0xbcdb35e5	-0.026759097
88	0xbc74d61a	-0.014943624
89	0x3d86281b	0.06550618
90	0xbcde549d	-0.027139956
91	0xbce9ad59	-0.028525041
92	0xbd9a221b	-0.07526036
93	0xbd50e4aa	-0.05099932
94	0xbd38cf19	-0.04511938
95	0x3da4450a	0.08020981
96	0x3d611c61	0.054958705
97	0xbd01d0e4	-0.031693354
98	0xbd74befa	-0.059752442
99	0x3c8fc9a0	0.017552197
100	0x3d63e728	0.05564037
101	0xbd3aefc8	-0.04563883
102	0x3d470907	0.048592594
103	0xbd1fb1ca	-0.038987912
104	0xbc2b5ad2	-0.010458665
105	0xbc65d4bf	-0.014027773
106	0xbc3b39d6	-0.011427363
107	0x3dbcfa5b	0.09227439
108	0x3da9523f	0.0826764
109	0x3bc8498d	0.0061122836
110	0x3b2a3b90	0.0025975443
111	0xbdbabe99	-0.09118385
112	0x3c95aec2	0.018271808
113	0xbd7c935c	-0.06166397
114	0xbd775918	-0.0603877
115	0x3d9c509c	0.076325625
116	0x3dd76050	0.10516417
117	0xbc2f4109	-0.010696658
118	0xbc2ff822	-0.010740312
119	0x3daa9f7b	0.083312
120	0x3d94e3aa	0.07269986
121	0x3dc41551	0.09574378
122	0xbd603b92	-0.05474431
123	0xbd42597f	-0.04744863
124	0x3cf51ada	0.02992003
125	0x3d6c47df	0.05768573
126	0x3cc1fd28	0.023680285
127	0xbd5e7785	-0.0543132
128	0x3db606a5	0.08887986
129	0x3dd3b1dc	0.10336658
130	0x3d0513e0	0.032489657
131	0x3d39258a	0.045201816
132	0x3cb573df	0.022149978
133	0xbd9f0949	-0.07765443
134	0xbd7735fc	-0.060354218
135	0xbc9f989b	-0.019481948
136	0xbd6e5014	-0.058181837
137	0x3daf25de	0.085521445
138	0x3d238b98	0.03992805
139	0xbd4ff2c0	-0.050768614
140	0x3d26188c	0.040550753
141	0x3d8ba7df	0.06819128
142	0xbb091de0	-0.0020922348
143	0x3ddfbb25	0.10924367
144	0x3d7d1e52	0.061796494
145	0x3db95d2b	0.090509735
146	0xbcbec901	-0.023289206
147	0xbd21e956	-0.039529167
148	0xbd018e71	-0.031629983
149	0x3d634995	0.055490095
150	0x3d20cd8b	0.03925852
151	0x3d918c39	0.071068235
152	0x3cdc14d0	0.026865393
153	0xbd7da134	-0.061921313
154	0xbd394298	-0.045229524
155	0xbc99a0cb	-0.01875343
156	0x3ca72949	0.020405428
157	0x3d993cae	0.07482277
158	0x3dc7b38f	0.09751045
159	0xbd071a10	-0.03298384
160	0x3d9b2c96	0.075768635
161	0x3d92e006	0.07171635
162	0xbc53d09a	-0.012928152
163	0xbd84772d	-0.064680435
164	0xbc638e90	-0.01388897
165	0xbd6da19e	-0.05801546
166	0x3d8c80de	0.06860517
167	0x3d4c8bdf	0.04993808
168	0x3c8954a8	0.016764
169	0xbcf7f3a6	-0.030267548
170	0x3d26cba3	0.040721547
171	0x3d55294a	0.05204133
172	0xbd94cdd0	-0.07265818
173	0x3d900c16	0.07033555
174	0xbd8d75dc	-0.069072455
175	0x3d87507c	0.06607148
176	0x3d9cc565	0.076548375
177	0x3d9d4994	0.076800495
178	0xbd358f05	-0.044325847
179	0x3dbea0c7	0.093080096
180	0xbc4569a5	-0.012049113
181	0xbd9d2aeb	-0.076742016
182	0x3db6d7f6	0.0892791
183	0x3dc1475d	0.094374396
184	0x3d82ff61	0.06396366
185	0x3d951cd0	0.07280886
186	0xbd98aba9	-0.074546166
187	0xbda55141	-0.080721386
188	0xbc755a65	-0.014975165
189	0xbbb06a8c	-0.005383795
190	0x3ca62cdf	0.020285068
191	0x3d4ffa0b	0.05077557
192	0xbcb3b1de	-0.0219354
193	0x3de7e056	0.113220856
194	0xbcc931b3	-0.024559831
195	0xbd89f1a4	-0.067355424
196	0x3dab1ff7	0.08355706
197	0x3d8c7778	0.06858724
198	0x3d5cc361	0.053897265
199	0xbc7768cf	-0.015100672
200	0xbc929669	-0.017893987
201	0x3c4f269a	0.012643481
202	0xbd12452e	-0.035710506
203	0xbd7ec61f	-0.06220066
204	0x3d90cde9	0.07070524
205	0x3cf6e9d3	0.030140793
206	0x3d9d468e	0.07679473
207	0xbd4cc6a7	-0.049994137
208	0xbc87b119	-0.016563939
209	0x3dae29e3	0.08504083
210	0x3cda992c	0.026684366
211	0x3d2a6399	0.04159889
212	0x3cfd31d8	0.030907556
213	0xbbf8359a	-0.007574749
214	0x3dca4c92	0.09877886
215	0x3cd6319f	0.026146708
216	0x3c3eacf0	0.011637911
217	0x3c49af4f	0.012309863
218	0xbd535ba1	-0.051601056
219	0xbd616494	-0.05502756
220	0x3cb59600	0.022166252
221	0xbd4b0333	-0.049563598
222	0xbd9ddf34	-0.07708588
223	0x3d89f827	0.067367844
224	0x3b7701dd	0.003769032
225	0xbd18a003	-0.037261974
226	0x3dbd8a03	0.09254839
227	0x3c476737	0.012170604
228	0xbd58d835	-0.052940566
229	0x3d9a9f76	0.07549946
230	0x3d9064fc	0.07050511
231	0x3d5d5008	0.054031402
232	0x3c10864b	0.00882108
233	0xbc0053a8	-0.007832445
234	0x3d98d81d	0.07463095
235	0x3cb82b9f	0.022481738
236	0x3d7d684e	0.06186705
237	0xbd5d60c2	-0.054047354
238	0xbd4a06e3	-0.049322974
239	0x3d8480a5	0.064698495
240	0x3d416843	0.047218572
241	0xbc9a0ab1	-0.018803926
242	0x3d4d4631	0.050115768
243	0x3d2f263a	0.042761065
244	0x3c071303	0.008244279
245	0xbd7a91d0	-0.061174214
246	0x3de1c15a	0.11023207
247	0xbb15ca7a	-0.002285628
248	0xbcd98aca	-0.026555438
249	0xbcacdebd	-0.021102304
250	0xbda65e01	-0.081233986
251	0xbd74a0c3	-0.059723627
252	0xbd001015	-0.031265337
253	0xbd46571e	-0.048422925
254	0xbd1fa5f4	-0.038976625
255	0x3d3ab23e	0.04558014

backbone.bias_hh_l0 f4 [512]
0	0xbc995790	-0.01871851
1	0x3c73eca7	0.014887965
2	0x3d5c5097	0.053787794
3	0x3d388218	0.045045942
4	0x3d04b953	0.0324033
5	0x3c50fe02	0.012755873
6	0xbc883e64	-0.016631313
7	0xbbe608d0	-0.0070200935
8	0xbd90ed32	-0.070764914
9	0x3ddbd69e	0.10734294
10	0x3d522234	0.05130215
11	0x3c967a26	0.018368792
12	0x3d2817e1	0.041038398
13	0x3c584fbf	0.013202607
14	0xbd538d0e	-0.051648192
15	0x3dab647f	0.083687775
16	0x3c9b7f7a	0.018981684
17	0xbc03cdda	-0.008044684
18	0xbc02731c	-0.0079620145
19	0xbd460be7	-0.048351195
20	0x3c30b02a	0.010784188
21	0x3d6d8bbd	0.057994593
22	0x3d3b2994	0.04569395
23	0x3cfc9837	0.0308343
24	0x3b010212	0.0019685072
25	0x3aaec6b9	0.001333437
26	0x3cdbd625	0.02683551
27	0x3d18744a	0.037220277
28	0x3c3df2f0	0.011593565
29	0xbd073ee3	-0.033018958
30	0x3dcef4ac	0.10105261
31	0x3d8b042d	0.06787906
32	0x3dac1929	0.084032364
33	0x3d9ae098	0.07562369
34	0x3dd4cae4	0.10390261
35	0x3cd9852b	0.026552757
36	0xbd989638	-0.07450527
37	0xbd73fee6	-0.059569262
38	0xbd0965b0	-0.033544242
39	0x3d2c8824	0.04212202
40	0x3d79f16b	0.06102125
41	0x3db63ed5	0.08898703
42	0xbd701160	-0.05861032
43	0x3db4e487	0.08832651
44	0x3bf5be71	0.007499509
45	0x3d5d2e11	0.05399901
46	0x3dbd6923	0.09248569
47	0x3d3a0b5f	0.045421
48	0x3d654340	0.055972338
49	0x3da53655	0.08067004
50	0xbcd18321	-0.025575222
51	0x3da7262e	0.08161579
52	0xbd6155b6	-0.05501338
53	0x3de27097	0.11056631
54	0xbd614f3a	-0.055007197
55	0x3cdd8c64	0.027044483
56	0xbd93458f	-0.071910016
57	0x3bfa7e93	0.0076444834
58	0x3c8c48e9	0.01712461
59	0xbd642fc9	-0.055709634
60	0x3d6a93c9	0.057269845
61	0xbd5359f9	-0.051599476
62	0xbd4bc570	-0.049748838
63	0x3dcf5dbd	0.10125301
64	0x3d987733	0.074446104
65	0x3daaf409	0.08347327
66	0xbcd145f4	-0.025546052
67	0xbd7503d4	-0.059818104
68	0xbd885307	-0.06656461
69	0xbbd691b6	-0.006548132
70	0x3db7fc13	0.08983626
71	0x3d0a4e76	0.033766232
72	0xbd8d8ce0	-0.069116354
73	0x3da36348	0.07977921
74	0x3b279740	0.002557233
75	0x3d5a9883	0.053368103
76	0x3d8500f3	0.06494322
77	0xbd978143	-0.073977016
78	0xbd4437cd	-0.04790478
79	0x3c277fef	0.010223373
80	0xbd2ff0a2	-0.042954095
81	0x3ca8af93	0.020591533
82	0x3ce0720f	0.027398137
83	0x3d3aa2cc	0.04556541
84	0xbc720590	-0.014771834
85	0x3c8e21c6	0.017350089
86	0xbd96603d	-0.07342575
87	0x3d4e6f7d	0.050399292
88	0x3d7b5855	0.061363537
89	0x3dce8a85	0.10085014
90	0xbd9fcc36	-0.07802622
91	0x3d73deff	0.059538838
92	0xbc87f88b	-0.016598007
93	0x3c206e50	0.009791926
94	0x3db73e30	0.08947408
95	0x3d922e39	0.071377225
96	0x3cee976d	0.02912494
97	0xbd19d9a8	-0.03756109
98	0x3d3e0deb	0.046399992
99	0x3d4ce10c	0.05001931
100	0xbd5993d4	-0.053119496
101	0xbdbb47de	-0.09144567
102	0xbd85f9b5	-0.065417685
103	0x3d92e129	0.07171852
104	0x3c73448a	0.014847884
105	0x3d821c95	0.06353108
106	0x3d4b57cd	0.04964428
107	0xbb6808cb	-0.0035405632
108	0xbcb22cf9	-0.02174996
109	0xbd5cf3e5	-0.053943533
110	0xbd173c10	-0.036922514
111	0xbc9bcf4c	-0.019019745
112	0x3d7575cd	0.059926797
113	0x3b23a2ec	0.0024968935
114	0x3d1f1f2e	0.038848095
115	0xbc8e9640	-0.01740563
116	0x3ca88d40	0.020575166
117	0xbccc15da	-0.024912763
118	0x3cdef67e	0.027217146
119	0xbd752503	-0.05984975
120	0x3da545c7	0.080699496
121	0xbd28e01a	-0.041229345
122	0x3d986226	0.07440595
123	0x3db6045b	0.088875495
124	0xbcdea691	-0.027179034
125	0x3d8537da	0.065047935
126	0x3da3e967	0.08003502
127	0xbb5dda41	-0.0033852013
128	0xbc32b2cb	-0.010906885
129	0x3d5dd0aa	0.054154076
130	0xbc91bb5e	-0.017789539
131	0x3bf88d43	0.007585199
132	0x3d1ff6d3	0.03905375
133	0xbcd22dfd	-0.025656695
134	0xbcd27d22	-0.025694434
135	0x3c086cde	0.008326737
136	0xbd657390	-0.056018412
137	0xbd438344	-0.047732607
138	0xbcc7d45e	-0.024393257
139	0x3ceaf317	0.028680367
140	0x3d7da7fd	0.061927784
141	0x3dbdd7f9	0.09269709
142	0xbd99ec29	-0.07515747
143	0xbd6740bb	-0.056458216
144	0xbd855b98	-0.06511611
145	0xbc9aa633	-0.018878078
146	0xbd3a0e68	-0.045423895
147	0x3c9b287c	0.018940203
148	0x3de5490a	0.11195572
149	0x3d82b2ea	0.063817814
150	0xbc6bd33c	-0.014393624
151	0x3d339b34	0.043849185
152	0x3d0329ee	0.03202241
153	0xbd58db08	-0.05294326
154	0x3d8e6faf	0.06954896
155	0x3d020b45	0.03174903
156	0x3d875f05	0.066099204
157	0x3da9efd8	0.082977
158	0xbd72e28a	-0.059298076
159	0x3db0e5f9	0.08637614
160	0xbd111dc0	-0.035428762
161	0xbda97124	-0.08273533
162	0x3d9ef411	0.07761396
163	0xbd8b042e	-0.067879066
164	0xbd73378b	-0.05937914
165	0xbd6a3768	-0.057181746
166	0x38f87cf2	0.000118488344
167	0x3db0a53f	0.08625268
168	0x3c0c074b	0.008546661
169	0xbd1101e4	-0.035402194
170	0x3da138e1	0.07872177
171	0x3d562694	0.052282885
172	0xbc6568f4	-0.014002074
173	0xbd389c36	-0.04507085
174	0xbd3fb8f9	-0.046807263
175	0x3d901c86	0.070366904
176	0x3da809d6	0.08205001
177	0x3d329d9d	0.043607343
178	0x3d6d7320	0.05797112
179	0x3de1a368	0.110174954
180	0x3c8b4f9d	0.017005736
181	0x3b5087c4	0.0031819204
182	0x3d9b7506	0.0759068
183	0x3dc65e97	0.0968601
184	0xbc69b076	-0.014263263
185	0xbda1944b	-0.07889613
186	0xbd9983fc	-0.07495877
187	0x3d9893cf	0.07450067
188	0x3db0f226	0.08639936
189	0xbd247037	-0.04014608
190	0x3d1d7b58	0.038447708
191	0x3d116c4a	0.035503663
192	0x3d096b53	0.033549618
193	0x3de58dc0	0.11208677
194	0x3c038551	0.008027391
195	0xbd64e63d	-0.055883635
196	0x3d3d52c2	0.046221502
197	0x3d1d313b	0.038377028
198	0xbcf87d61	-0.030333223
199	0x3d72597a	0.059167363
200	0x3b5ef0c4	0.003401802
201	0xbc727a02	-0.014799597
202	0xbd49d299	-0.049273107
203	0x3da6d0a8	0.08145267
204	0xbd78eced	-0.060772825
205	0x3da2e027	0.0795291
206	0x3d7aa57e	0.061192982
207	0x3dc3178a	0.09525974
208	0xbceb04dc	-0.02868884
209	0xbd25e3b7	-0.04050037
210	0xbd03e1bf	-0.03219771
211	0xbdb74d19	-0.08950252
212	0xbd86eb08	-0.065877974
213	0x3d0bfbc4	0.03417565
214	0xbbadc41a	-0.005302918
215	0xbc9e9b58	-0.019361183
216	0xbd965379	-0.0734014
217	0xbd20dd36	-0.039273463
218	0xbd84a162	-0.06476094
219	0xbcb02ee2	-0.02150673
220	0x3c0f8d8a	0.008761773
221	0x3bf91739	0.0076016453
222	0x3da44ed7	0.0802285
223	0xbd69f381	-0.05711699
224	0xbcabf34c	-0.020990036
225	0xbd832b9c	-0.06404802
226	0x3d9befa5	0.07614068
227	0xbdb9f469	-0.09079821
228	0xbd37d844	-0.04488398
229	0xbd3ec142	-0.046571024
230	0xbd0e85db	-0.034795623
231	0x3db3cfbd	0.08779857
232	0x3cf2bc5a	0.029630829
233	0x3d1f94c0	0.03896022
234	0xbd012568	-0.031529814
235	0xbcc7cf34	-0.024390794
236	0xbc4f4ba3	-0.012652311
237	0x3c237f47	0.009979076
238	0x3d8494b1	0.06473673
239	0xbd97c351	-0.074103005
240	0x3d3ddd47	0.046353605
241	0x3cc1339d	0.023584181
242	0xbd67b050	-0.05656463
243	0x3d82f822	0.06394984
244	0x3dd5541c	0.10416433
245	0x3cbf1af5	0.023328284
246	0x3d9701ca	0.07373388
247	0x3d818247	0.063236766
248	0x3dcfa092	0.10138048
249	0x3d778e8e	0.060438685
250	0x3d0ce089	0.03439382
251	0x3cdc5c23	0.026899403
252	0xbd971091	-0.07376207
253	0x3cfbef36	0.030753713
254	0x3d5cdd3c	0.053921923
255	0xbcfc79e5	-0.030819843

backbone.weight_ih_l1 f4 [512, 128]
0	0xbcd6550b	-0.026163599
1	0xbd15e250	-0.03659278
2	0xbd275f66	-0.040862463
3	0xbcdf0ed6	-0.027228754
4	0x3cd744a7	0.026277853
5	0x3caab870	0.0208399
6	0xbd26ad4a	-0.040692605
7	0x3d84cdf8	0.06484598
8	0xbb25a973	-0.0025278002
9	0x3c464b3a	0.012102896
10	0x3bc2f336	0.005949403
11	0x3de72373	0.11286058
12	0xbdc219d9	-0.09477586
13	0xbd43b68e	-0.04778152
14	0xbcae8180	-0.021301985
15	0xbd80df64	-0.062926084
16	0x3c0c90ad	0.008579415
17	0x3be4fe3e	0.006988316
18	0x3d264246	0.040590547
19	0xbd9e5328	-0.077307045
20	0x3c867e78	0.016417727
21	0xbdb362e0	-0.08759093
22	0xbc0561fc	-0.008141037
23	0xbd6425a5	-0.055699963
24	0xbc6eac6a	-0.014567474
25	0xbd94d982	-0.07268049
26	0xbd2dd8d5	-0.042443115
27	0x3d654dd9	0.055982444
28	0xbdb30a6b	-0.087422214
29	0xbdbedab8	-0.09319061
30	0x3dd11377	0.10208791
31	0xbdb78235	-0.08960382
32	0xbc3d3f28	-0.011550702
33	0xbd4e452d	-0.05035894
34	0x3c9503f6	0.018190365
35	0x3d7a9e74	0.06118627
36	0x3d8ff8de	0.070298895
37	0xbb347e6e	-0.0027541178
38	0xbcb55e2b	-0.02213963
39	0x3da1061c	0.078624934
40	0x3d484f5b	0.048903804
41	0xbd9b236f	-0.07575118
42	0xbceb0e44	-0.028693326
43	0x3c7ddc80	0.015494466
44	0xbd8a2420	-0.067451715
45	0x3d7fa23d	0.06241058
46	0x39e4d816	0.00043648545
47	0xbda82bab	-0.08211454
48	0xbd032d0d	-0.032025386
49	0xbc874280	-0.016511202
50	0x3d9dea26	0.07710676
51	0xbd94cc65	-0.07265548
52	0x3d03b5fa	0.03215597
53	0xbd886122	-0.066591516
54	0xbd68577b	-0.056724053
55	0x3c2faf9e	0.010723023
56	0xbd89fe92	-0.067380086
57	0x3b9537fd	0.0045537935
58	0x3c3b3992	0.0114273
59	0x3c8664dd	0.016405517
60	0xbd4f21ea	-0.050569452
61	0x3d80fda9	0.06298382
62	0xba5ee87e	-0.0008503272
63	0x3cbbee0f	0.022940664
64	0xbc9b12ae	-0.018929806
65	0xbd73d3b1	-0.059528057
66	0x3cda5f68	0.026656821
67	0xbd28f758	-0.04125151
68	0x3daa3142	0.083101764
69	0xbd7738af	-0.060356792
70	0x3dacadfd	0.08431623
71	0x3ca5b89c	0.02022963
72	0x3bd6db69	0.0065569174
73	0xbdbeb386	-0.09311585
74	0xbc9299ee	-0.017895665
75	0xbd5bc843	-0.05365778
76	0x3ca774c8	0.020441428
77	0xbd5e3462	-0.054249175
78	0xbbc5155d	-0.0060145096
79	0x3c9865f7	0.018603308
80	0xbd817920	-0.06321931
81	0xbda1316e	-0.07870756
82	0x3bd78e71	0.0065782596
83	0x3d92245b	0.071358405
84	0x3d81861b	0.06324407
85	0xbd8632b1	-0.06552637
86	0xbca34e7f	-0.01993489
87	0x3d5827e0	0.052772403
88	0x3b9f6ae1	0.004865036
89	0x3d8f4160	0.06994891
90	0x3d4b2386	0.049594425
91	0xbd08f28a	-0.03343443
92	0xbd1902ac	-0.037356064
93	0xbd32b648	-0.04363087
94	0x3d1ba5f8	0.038000077
95	0xbd0fff09	-0.03515533
96	0x3d8bf72e	0.06834255
97	0xbd00da14	-0.031457976
98	0x3da8e2d5	0.0824639
99	0xbd24d15e	-0.04023873
100	0x3d7660f4	0.060151055
101	0xbd5f58f5	-0.054528195
102	0x3d14a0ff	0.03628635
103	0xbd4c266b	-0.049841326
104	0x3d9d11dd	0.07669423
105	0x3acafaed	0.0015486159
106	0xbd748853	-0.05970032
107	0xbd9bec1a	-0.07613392
108	0x3ca972a7	0.020684553
109	0xbd91ef8a	-0.071257666
110	0x3d195eab	0.037443798
111	0xbd887c68	-0.066643536
112	0xbcf2b03e	-0.029625054
113	0x3c29463e	0.010331688
114	0xbc1bdac8	-0.009512611
115	0xbd5de988	-0.05417779
116	0xbd2bc531	-0.041936103
117	0xbc80ee06	-0.015738498
118	0x3d087d77	0.033322778
119	0x3c1f1476	0.009709468
120	0xbcb79421	-0.0224095
121	0x3da6ceaf	0.081448905
122	0x3d4deb5a	0.050273277
123	0x3b3b9f87	0.0028629021
124	0x3d819471	0.06327141
125	0x3c6afb24	0.014342103
126	0xbca28e0d	-0.019843126
127	0x3d18bb69	0.037288103
128	0xbcbbcbf7	-0.022924406
129	0xbda8bafd	-0.0823879
130	0x3c3bc03f	0.011459409
131	0x3d453cc3	0.04815365
132	0xbd8c7dcc	-0.06859931
133	0xbdb825eb	-0.08991607
134	0x3d51caab	0.05121867
135	0x3ca6b887	0.020351661
136	0x3dd714fb	0.105020486
137	0xbd891db6	-0.0669512
138	0x3d6b3d5e	0.05743157
139	0x3d11a693	0.03555925
140	0x3cd311f0	0.02576539
141	0x3d4df96c	0.050286695
142	0x3d47d50e	0.04878717
143	0x3d3898c1	0.045067552
144	0x3c373e14	0.011184234
145	0x3d09ab76	0.033610784
146	0x3da0f906	0.078599975
147	0x3cf66bda	0.030080725
148	0xbd05093e	-0.032479517
149	0x3d1343c9	0.035953317
150	0x3d7ccfd6	0.061721645
151	0x3d0383ba	0.032108046
152	0x3c201112	0.009769695
153	0x3d112e0e	0.03544431
154	0xbda3d0df	-0.079988234
155	0x3d4d9d1a	0.05019865
156	0x3c06cf5f	0.008228152
157	0x3cacbdd6	0.021086615
158	0xbd3c0a91	-0.045908514
159	0xbd56807f	-0.052368637
160	0x3cff3c33	0.031156635
161	0xbc5e97f1	-0.01358603
162	0xbcd26eea	-0.025687654
163	0xbdba63b4	-0.09101048
164	0xbd9d6c83	-0.076867126
165	0x3c11217e	0.008858083
166	0xbd5afae6	-0.05346193
167	0x3d2f1db5	0.04275294
168	0x3d773914	0.06035717
169	0x3d315db8	0.043302268
170	0x3db03fc5	0.08605913
171	0x3d8534c7	0.06504207
172	0x3da285e1	0.079356916
173	0x3d85c618	0.06531924
174	0xbd89f26a	-0.0673569
175	0x3ca714ab	0.020395597
176	0xbd3f220d	-0.046663333
177	0x3c9270e3	0.017876094
178	0xbba82abb	-0.005132047
179	0xbdb43868	-0.08799821
180	0xbd6aeb0f	-0.057353076
181	0x3ca321ab	0.019913515
182	0xbd888956	-0.0666682
183	0x3d7f45e3	0.06232251
184	0x3d65972c	0.05605237
185	0x3dddc48a	0.108285025
186	0xbda638ae	-0.081162795
187	0x3c1067f8	0.008813851
188	0x3d3b6dee	0.045759134
189	0x3c88bc5c	0.01669138
190	0x3d60c440	0.05487466
191	0x3ca973ac	0.02068504
192	0x3ce44cd4	0.027868666
193	0x3d6e015d	0.05810677
194	0x3d65736f	0.05601829
195	0x3d274b73	0.04084344
196	0x3d643361	0.05571306
197	0x3cd1f91a	0.025631476
198	0x3dc1cfa8	0.094634354
199	0x3dac8357	0.084234886
200	0x3d2e6eaa	0.042586006
201	0xbcd2b2f7	-0.025720103
202	0xbb19e1ec	-0.0023480607
203	0xbd10b247	-0.03532627
204	0xbd4799d3	-0.048730683
205	0xbd62d43b	-0.05537818
206	0x3c6e5c51	0.014548377
207	0x3d8b2bb4	0.06795445
208	0xbdcbc98f	-0.099505536
209	0xbd31d413	-0.04341514
210	0xbd7d1a64	-0.061792746
211	0xbd831f07	-0.06402402
212	0xbc02d571	-0.007985459
213	0xbd540d36	-0.05177041
214	0xbb8f43ea	-0.0043721097
215	0x3c90020b	0.0175791
216	0x3c1ff2c3	0.009762469
217	0xbd518980	-0.05115652
218	0x3dae18c7	0.0850082
219	0xbc0f9206	-0.008762842
220	0x3d88224e	0.06647168
221	0x3d9a6b53	0.07540002
222	0x3c7d23c6	0.015450424
223	0xbcd16b31	-0.025563808
224	0x3956556e	0.00020440455
225	0xbbfd60ec	-0.0077325013
226	0xbbea03ef	-0.007141582
227	0x3cc5da11	0.024151834
228	0x3d886a2e	0.06660877
229	0xbd335d26	-0.043790005
230	0xbc244194	-0.010025401
231	0x3c9b5716	0.018962424
232	0xbd40d9a7	-0.04708257
233	0x3c59a2ea	0.013283471
234	0xbdd5ec2f	-0.10445439
235	0xbda76b83	-0.08174803
236	0xbd203463	-0.03911246
237	0x3cde9534	0.027170755
238	0xbc1c80a9	-0.009552159
239	0x3d72d244	0.059282556
240	0xbd3c79ef	-0.046014722
241	0x3d45efa1	0.04832423
242	0x3c9bbf5a	0.019012142
243	0x3d69b228	0.05705467
244	0xbc6fe58a	-0.014642129
245	0x3d67b307	0.05656722
246	0xbdd59e8f	-0.10430633
247	0xbbcf0bbc	-0.0063185375
248	0x3a535ad2	0.00080625445
249	0x3d26f08b	0.040756743
250	0xbd6982d5	-0.057009537
251	0x3ca17f8a	0.019714136
252	0x3bfbc684	0.007683577
253	0x3cb3dfde	0.021957334
254	0xbd8b147b	-0.06791016
255	0xbd84c226	-0.064823434

backbone.weight_hh_l1 f4 [512, 128]
0	0xbd3ad3d9	-0.04561219
1	0xbd9bfe1d	-0.07616828
2	0x3d88ff1c	0.06689283
3	0x3b98de3e	0.004665165
4	0xbbc2c548	-0.005943928
5	0x3d650af2	0.05591864
6	0xbdaea9e8	-0.08528501
7	0xbd59fe28	-0.053220898
8	0xbc940c3e	-0.018072244
9	0x3d395dec	0.045255587
10	0x3cf107f8	0.029422745
11	0x3d799aa8	0.060938507
12	0xbd67f9ac	-0.05663459
13	0xbcfeccd7	-0.031103535
14	0x3d843f57	0.064573936
15	0x3c00b407	0.007855422
16	0xbcccebe7	-0.02501483
17	0xbd614bb8	-0.05500385
18	0x3d156a84	0.036478534
19	0xbd8700bf	-0.06591939
20	0x3d12428f	0.035708006
21	0xbd56cdb0	-0.052442253
22	0xbc8c0955	-0.017094294
23	0xbd9327c6	-0.071853206
24	0xbce9843e	-0.02850544
25	0xbd13a774	-0.036048368
26	0xba562908	-0.0008169566
27	0xbd83e1fa	-0.06439586
28	0x3c74e953	0.014948207
29	0xbcc9604e	-0.024582054
30	0x3d6689f5	0.05628391
31	0xbd2f8486	-0.042850994
32	0xbdb734f7	-0.08945649
33	0xbd55b323	-0.05217279
34	0x3c4f15e0	0.012639493
35	0x3d11918e	0.035539202
36	0x3d98710b	0.07443436
37	0x3d2550f8	0.04036042
38	0x3d3b659a	0.04575119
39	0x3d9ef4be	0.077615246
40	0xbca9110c	-0.020638011
41	0xbd7eb01b	-0.062179666
42	0xbd9a5bc3	-0.075370334
43	0x3d977830	0.07395971
44	0xbd5fdc96	-0.054653727
45	0xbd7d8244	-0.06189181
46	0x3db18a2b	0.086689316
47	0x3c67531f	0.014118939
48	0xbc8a3466	-0.016870689
49	0xbcd60cd7	-0.02612917
50	0x3bdf7d4f	0.006820358
51	0x3db1ec5a	0.086876586
52	0x3d803759	0.06260557
53	0x3dabe200	0.083927155
54	0xbc62a1a1	-0.013832481
55	0x3cf13576	0.029444437
56	0xbd00028f	-0.03125244
57	0xbdcf8e75	-0.101345934
58	0xbd766d50	-0.060162842
59	0x3d4d0ef2	0.05006308
60	0xbc619aeb	-0.0137698455
61	0x3da07000	0.07833862
62	0xbdb6e9dc	-0.08931324
63	0x3c6d173d	0.0144708725
64	0xbc3431c9	-0.010998198
65	0xbd1d0565	-0.038335223
66	0x3d32e8cc	0.043679044
67	0xbd1283c3	-0.03577019
68	0x3d2d1f88	0.0422664
69	0x3d29cc27	0.04145446
70	0xbda83643	-0.082134746
71	0x3d9e1455	0.07718722
72	0xbd96d848	-0.07365471
73	0x3db0e712	0.08637823
74	0x3d446710	0.04794985
75	0x3bb0be82	0.005393804
76	0x3d0855ed	0.03328507
77	0xbc8770e6	-0.016533326
78	0xbd695aee	-0.056971483
79	0xbd15b95c	-0.036553726
80	0x360e3700	2.1191663e-06
81	0x3d1352b0	0.03596753
82	0xbd144178	-0.03619525
83	0xbc2983a8	-0.010346331
84	0x3c1bbc67	0.009505368
85	0x3da19798	0.07890242
86	0x3d2adfca	0.041717328
87	0x3c4ccd79	0.01250016
88	0xbc020b49	-0.007937261
89	0x3c493905	0.012281661
90	0x3d5ff6e1	0.0546788
91	0x3dd7171d	0.105024554
92	0xbd5221c4	-0.051301733
93	0xbd66a91b	-0.056313615
94	0xbbec1b9a	-0.007205439
95	0xbdb72f64	-0.08944586
96	0xbcb76fab	-0.022392115
97	0xbcd76aab	-0.02629598
98	0x3d3b3f0f	0.045714434
99	0xbd94b8a7	-0.07261782
100	0xbd68691d	-0.05674087
101	0x3d81d2e7	0.063390546
102	0xbdaaac74	-0.08333674
103	0x3c8d7b2e	0.01727065
104	0xbbc6312e	-0.006048343
105	0x3d19b710	0.037528098
106	0x3c4331e4	0.01191375
107	0x3dd3af46	0.10336165
108	0x3d105e67	0.03524628
109	0x3cd74035	0.026275733
110	0x3d52359e	0.051320665
111	0xba167898	-0.0005740016
112	0x3c83399b	0.01601868
113	0x3db3b981	0.087756164
114	0xbd3d6552	-0.046239205
115	0x3d777212	0.06041152
116	0x3d3b5233	0.04573269
117	0x3d82971a	0.063764766
118	0x3d3d64d0	0.04623872
119	0xbd6c9b94	-0.05776556
120	0xbc3c12a9	-0.011479058
121	0xbdda1c46	-0.10649924
122	0x3da505ec	0.0805777
123	0x3c756c0a	0.014979372
124	0xbd946d00	-0.072473526
125	0x3d529e59	0.051420543
126	0x3d52396f	0.051324304
127	0x3da06c54	0.07833162
128	0x3d724777	0.059150185
129	0xbd0a57dd	-0.0337752
130	0x3c83a51b	0.01606994
131	0xbd326542	-0.0435536
132	0x3c212015	0.009834309
133	0xbd7c3027	-0.06156936
134	0xbd72cca6	-0.0592772
135	0x3c930c1d	0.017950112
136	0x3daa29d0	0.08308756
137	0xbd875c75	-0.06609432
138	0x3dd304be	0.10303639
139	0xbc425f8a	-0.011863599
140	0x3d3d0372	0.046145864
141	0x3c330821	0.010927231
142	0xbc376d86	-0.011195546
143	0xbc92415d	-0.017853433
144	0xbd945002	-0.07241823
145	0xbd0188fb	-0.031624775
146	0xbd9c3353	-0.07626977
147	0x3ba5acaf	0.005055986
148	0xbd2bf21e	-0.041978948
149	0xbd6db16f	-0.058030542
150	0x3da3116c	0.07962307
151	0x3d2d5cf8	0.04232499
152	0xbb220b8b	-0.0024726118
153	0x3d0c6f78	0.034285992
154	0x3d8c5eca	0.06854017
155	0x3d87105e	0.06594919
156	0xbd00a9db	-0.031411987
157	0xbd9f4bbc	-0.07778117
158	0x3cdd44e8	0.027010396
159	0x3c6b2c08	0.01435376
160	0xbd6e0706	-0.058112167
161	0x3c8efedf	0.017455516
162	0x3d7bc6e2	0.061468966
163	0xbd9492ff	-0.072546
164	0x3caae783	0.020862347
165	0xbcc2887a	-0.023746718
166	0xbd5ab9c3	-0.053399812
167	0xbd6c9d8b	-0.057767432
168	0xbd422bd4	-0.04740508
169	0x3d03e7a1	0.03220332
170	0xbdb0b4fb	-0.08628269
171	0xbac35877	-0.0014903684
172	0x3c036b03	0.008021119
173	0xbd5b5e4b	-0.05355672
174	0xbca550ea	-0.020180184
175	0x3daa5cd6	0.08318488
176	0x3dc9e3fb	0.09857937
177	0xbd11ff4c	-0.03564386
178	0xbd89cd8f	-0.0672866
179	0x3d4bb0a5	0.04972901
180	0x3d9ae7a5	0.07563714
181	0x3d1da524	0.03848757
182	0x3bdbe973	0.006711179
183	0x3d571a82	0.052515514
184	0x3c52338b	0.012829672
185	0xbca3c7de	-0.019992765
186	0x3b969918	0.004595887
187	0x3d0b9ea8	0.034086853
188	0x3d78e607	0.060766246
189	0x3d95b535	0.07309953
190	0xbccccf4a	-0.025001187
191	0xbb501c83	-0.0031755276
192	0x3d94cbee	0.07265459
193	0xbb24e3fd	-0.0025160306
194	0x3cc21afd	0.02369451
195	0x3d5cbddc	0.053892
196	0x3d1de104	0.03854467
197	0xbdac6588	-0.08417803
198	0xbde81968	-0.11332971
199	0xbd0cc10e	-0.0343638
200	0xbd0d13d1	-0.034442727
201	0x3de5a9ca	0.11214025
202	0x3b868bda	0.004106027
203	0xbd0b1971	-0.03395981
204	0x3d690646	0.05689075
205	0x3cfd6c3b	0.030935397
206	0x3acaebbb	0.001548163
207	0xbc1fd38f	-0.009755029
208	0x3d945b5f	0.0724399
209	0x3cbd1eda	0.023086
210	0x3cfc32cb	0.030785939
211	0xbbe2033e	-0.006897359
212	0x3c8a9289	0.016915577
213	0x3d361ad1	0.044459168
214	0xba5be9ec	-0.0008389044
215	0x3d361616	0.044454657
216	0x3d717815	0.05895241
217	0x3c992b3f	0.01869738
218	0x3d758791	0.05994374
219	0x3de38794	0.11109844
220	0x3cd0c1d1	0.025483044
221	0xbd985474	-0.07437983
222	0xbcb4da8f	-0.022076873
223	0x3a536b67	0.00080650154
224	0xbd67de6d	-0.056608606
225	0xbd8d2d85	-0.06893448
226	0x3d10cbb6	0.035350524
227	0xbdc7e590	-0.097605824
228	0x3d17e403	0.037082683
229	0x3d2d6ca1	0.042339925
230	0x3d5b351a	0.05351744
231	0x3c8baaba	0.017049182
232	0xbc2aaa3d	-0.0104165645
233	0x3d67744d	0.056507397
234	0x3d247ceb	0.040158194
235	0xbcf112aa	-0.029427845
236	0x3bec6619	0.0072143194
237	0x3db41b76	0.087943
238	0xbd3ff212	-0.046861716
239	0xbd8b9dfc	-0.068172425
240	0xbbe66f32	-0.0070322985
241	0xbd3c80b8	-0.046021193
242	0xbd98968c	-0.074505895
243	0x3cb3989e	0.02192336
244	0xbd04a419	-0.03238306
245	0xbbff2c41	-0.007787258
246	0x3d5ee3ed	0.054416586
247	0x3db623e7	0.088935666
248	0x3d9471e2	0.07248284
249	0x3ae74718	0.0017645089
250	0x3dab2972	0.083575144
251	0x3c634048	0.013870306
252	0xbc9801c2	-0.018555526
253	0x3db547ab	0.0885156
254	0xbb0ea435	-0.0021765355
255	0x3ced58b8	0.028972968

backbone.bias_ih_l1 f4 [512]
0	0x3d9123ea	0.07086928
1	0x3c2bef10	0.010494009
2	0xbd370bea	-0.044689097
3	0xbd165705	-0.036704082
4	0xbd50c2f6	-0.05096718
5	0x3d8e044f	0.069344155
6	0xbd4cb4e0	-0.049977183
7	0xbd7d25bf	-0.061803576
8	0x3d917e68	0.07104188
9	0x3d0c440e	0.03424459
10	0xbca8c8a5	-0.020603487
11	0xbcfe51a1	-0.031044783
12	0xbcf8a220	-0.030350745
13	0xbc1553e6	-0.009114241
14	0xbd60d63d	-0.054891814
15	0xbd9cfd60	-0.07665515
16	0x3d27bff1	0.040954534
17	0x3bddf3bc	0.00677344
18	0x3c662d11	0.014048831
19	0xbda409df	-0.08009695
20	0x3da72973	0.08162203
21	0x3d80ae06	0.06283192
22	0x3d93f4d8	0.072244346
23	0xbc0cd4ae	-0.008595629
24	0xbd9daec2	-0.07699348
25	0x3d8eefd6	0.06979339
26	0x3d1f7558	0.038930267
27	0xbcd18f5a	-0.02558105
28	0xbd89f351	-0.06735862
29	0xbc31eb72	-0.010859357
30	0x3db9b37f	0.09067439
31	0x3be4e7c1	0.006985635
32	0xbc576320	-0.013146192
33	0x3dab3294	0.083592564
34	0x3da05011	0.078277715
35	0x3d2fc02d	0.042907882
36	0xbbacc017	-0.0052719223
37	0x3d37fcaa	0.044918694
38	0x3d8c6686	0.06855492
39	0x3c14cb71	0.009081707
40	0x3d41f69e	0.047354333
41	0xbd00d04d	-0.03144865
42	0x3bb4157f	0.0054957266
43	0xbd4029a6	-0.04691472
44	0x3bcad8ce	0.006190396
45	0xbd969bc0	-0.07353926
46	0x3c7c247c	0.015389558
47	0x3d625c3d	0.055263747
48	0xbd8f6bba	-0.07002969
49	0x3d41300e	0.04716497
50	0xbd0c4c30	-0.034252346
51	0x3d929aeb	0.071584545
52	0xbc8a4a30	-0.016881078
53	0x3c35e7b7	0.011102608
54	0x3d222397	0.039584722
55	0xbd29664a	-0.041357316
56	0xbc6e6a67	-0.0145517355
57	0xbce8ab9f	-0.028402148
58	0x3d2c0ce2	0.042004474
59	0x3b9b9148	0.0047475435
60	0x3c2ffbcf	0.010741188
61	0x3d31732f	0.04332274
62	0xbcf86dcd	-0.030325795
63	0x3c8eda50	0.017438084
64	0x3d009f2d	0.0314018
65	0x3cd141ca	0.025544066
66	0xbcd967e4	-0.026538797
67	0xbd252a64	-0.04032363
68	0x3c532907	0.0128882
69	0x3c903ee5	0.017608115
70	0x3daa4120	0.08313203
71	0xbd281555	-0.04103597
72	0x3dbacd34	0.09121171
73	0x3d83a255	0.06427447
74	0x3affc107	0.0019512483
75	0x3dd49baa	0.10381253
76	0x3d465cc7	0.048428323
77	0xbd9b7b39	-0.07591862
78	0x3cd70f7d	0.026252503
79	0xbd6eea58	-0.058328956
80	0xbb920b18	-0.004456889
81	0x3dbf2a00	0.09334183
82	0x3d3855bc	0.045003638
83	0x3d829a64	0.06377104
84	0x3d2dc8bb	0.04242776
85	0x3d95d2cd	0.07315598
86	0xbd293852	-0.041313477
87	0x3cb54109	0.022125738
88	0x3c965283	0.018349892
89	0xbc8d1888	-0.017223611
90	0xbca1c74a	-0.019748349
91	0x3dc66d4c	0.096888155
92	0xbc83ea2c	-0.016102873
93	0x3c4da268	0.012550928
94	0x3cdcd49b	0.026956847
95	0xbd81517c	-0.0631437
96	0xbb40728c	-0.002936515
97	0xbbb10942	-0.005402715
98	0x3caa4821	0.020786347
99	0x3bea02d9	0.0071414527
100	0x3d36d740	0.044638872
101	0xbd17b077	-0.037033524
102	0x3c8161bf	0.01579368
103	0x3d82b01a	0.06381245
104	0x3cfde064	0.030990787
105	0xbd3843b8	-0.044986457
106	0x3ca291b8	0.019844875
107	0x3d8ef3c1	0.06980086
108	0x3c6e8b2f	0.014559551
109	0x3da51f67	0.0806263
110	0xbbdcdf54	-0.00674049
111	0xbd5f4548	-0.05450943
112	0xbc709bf5	-0.014685621
113	0x3d1a957f	0.037740227
114	0xbafc4751	-0.0019247328
115	0x3db00b35	0.085958876
116	0x3ce8bb48	0.028409615
117	0xbda8358c	-0.08213338
118	0x3d3296f0	0.043600976
119	0x3cfde8c7	0.030994786
120	0xbd6184af	-0.055058178
121	0xbcb2aca2	-0.021810833
122	0x3dacb50c	0.084329695
123	0xbd60d671	-0.054892007
124	0x3d9f80e7	0.07788258
125	0xbcf29e14	-0.029616393
126	0x3da9f1c0	0.08298063
127	0x3d6a78e6	0.057244204
128	0x3dc7122a	0.097202614
129	0xbc67f715	-0.01415803
130	0x3c948843	0.01813138
131	0x3b7f93b6	0.0038997955
132	0x3d39a0f9	0.04531953
133	0xbc93bf75	-0.01803563
134	0x3cea854d	0.028628016
135	0x3dad3534	0.08457413
136	0x3cc8e21d	0.024521882
137	0x3d1614be	0.036640875
138	0xbd198a7e	-0.037485592
139	0xbd16456f	-0.03668731
140	0xbc9146d3	-0.017733967
141	0xbd3c49ec	-0.045968935
142	0x3c69b11a	0.014263416
143	0x3ca0f57e	0.01964831
144	0x3d69958a	0.057027377
145	0x3d009c88	0.03139928
146	0xbbcbb75f	-0.006216928
147	0x3d94c781	0.07264615
148	0xbd323265	-0.04350509
149	0x3c857c15	0.016294518
150	0x3cb93a73	0.022610879
151	0xbd445068	-0.047928244
152	0x3bcfbcce	0.006339646
153	0x3dacf48d	0.08445082
154	0xbd77a36c	-0.060458586
155	0xbd983423	-0.07431819
156	0xbd0b7000	-0.03404236
157	0x3d189796	0.03725394
158	0x3d7770c3	0.060410272
159	0x3d1fd1d2	0.03901846
160	0x3d596293	0.053072523
161	0xbd5355ae	-0.051595382
162	0xbdad70b9	-0.08468766
163	0xbd48e9d0	-0.049051106
164	0xbd8dd2da	-0.06924982
165	0xbd4ac5bf	-0.04950499
166	0xbd34d7b7	-0.044151034
167	0x3db1bf7b	0.086791
168	0xbbf9b00a	-0.0076198624
169	0x3b16592b	0.0022941332
170	0x3ad8a9b0	0.0016530063
171	0xbcc96b11	-0.024587186
172	0x3dbe47af	0.09291016
173	0xbbfc6721	-0.0077027236
174	0xbdae3b1d	-0.08507369
175	0x39c0ced4	0.00036775193
176	0xbda55556	-0.08072917
177	0x3d975804	0.073898345
178	0xbd308559	-0.04309592
179	0x3c28fa15	0.01031353
180	0xbacb9937	-0.0015533332
181	0xbcdb14ea	-0.026743371
182	0x3d317f57	0.04333433
183	0xbd24b5ce	-0.040212445
184	0xbc8700eb	-0.01647993
185	0x3d0bd11b	0.034134965
186	0xbc55473a	-0.01301747
187	0xbd5c9322	-0.053851254
188	0x3d604c87	0.054760482
189	0x3c244a32	0.010027455
190	0x3d0f5b16	0.034998976
191	0x3bce66b8	0.006298866
192	0x3d27c307	0.040957477
193	0x3d288681	0.041143898
194	0xbd76d058	-0.060257286
195	0xbd8be21e	-0.06830238
196	0xbd076f37	-0.033065047
197	0x3dbd0a75	0.0923051
198	0xbce2d1ef	-0.027687995
199	0x3d4dc07b	0.05023239
200	0x3d9ce419	0.07660694
201	0xbc87ca65	-0.016576001
202	0xbce07168	-0.027397826
203	0x3c9a2ad4	0.01881925
204	0x3cbb8a20	0.022893012
205	0x3d23b043	0.03996302
206	0x3dc2b5ea	0.095073536
207	0x3d68464b	0.05670766
208	0xbd1baa1a	-0.03800402
209	0xbd1a10a7	-0.037613537
210	0xbd9b3657	-0.07578724
211	0xbd5750c7	-0.05256727
212	0x3dc83644	0.09775975
213	0x3d8a77b3	0.06761112
214	0xbd8b70bf	-0.06808614
215	0x3c88a367	0.016679479
216	0x3c6db476	0.014508357
217	0xbccd29c0	-0.025044322
218	0xbb9b6781	-0.0047425632
219	0x3ca33b11	0.019925626
220	0x3d2749e6	0.04084196
221	0xbdc47721	-0.095930345
222	0xbd82be4d	-0.06383953
223	0xbd87c73a	-0.06629796
224	0xbd2d951a	-0.042378522
225	0xbdbf3904	-0.09337047
226	0x3d93112c	0.0718101
227	0xbd89b167	-0.0672329
228	0x3d70305b	0.058639865
229	0xbbfd6b0a	-0.0077337073
230	0x3b61971b	0.0034422341
231	0x3da71070	0.08157432
232	0xbd30aa72	-0.0431313
233	0x3d08341e	0.033252828
234	0xbd253c9f	-0.040341016
235	0xbd3a8917	-0.045540895
236	0x3d9ab42a	0.07553895
237	0xbc574c83	-0.0131408
238	0xbc4832e7	-0.012219167
239	0x3c8e1789	0.017345207
240	0xbd2cba8b	-0.04217009
241	0x3c318204	0.010834221
242	0xbd1ea5e6	-0.03873243
243	0xbc17a764	-0.009256218
244	0x3be53573	0.006994897
245	0xbcabad2a	-0.020956594
246	0xbd8f6587	-0.07001787
247	0x3cf7c408	0.030244842
248	0xbc70f6d8	-0.01470729
249	0xbd8611fa	-0.065463975
250	0x3cbc4225	0.022980759
251	0x3da94427	0.08264952
252	0xbd3a6d00	-0.045514107
253	0x3c9fcbfd	0.019506449
254	0xbd4e3410	-0.05034262
255	0x3bef57c9	0.007304166
